mlp/mlp.pth (torch, 944165 bytes, 6 tensors)

weight f4 [256, 784]
000000 d0 7d 18 3b 64 36 af 3c b3 0f d7 bc 86 0f be bc
       0.002326835 0.02138824 -0.026252603 -0.023200762
000010 3f b4 32 bc ad 60 44 3c 48 5e f8 3a a3 b9 f8 3c
       -0.010907232 0.01198594 0.0018948996 0.030361956
000020 2e 70 08 ba ed 57 42 3c bd 11 03 bc 61 d9 8c bb
       -0.00052047044 0.011861783 -0.007999835 -0.0042983745
000030 11 5b fd bc 55 b4 a9 bc c2 49 42 bc dd be 7e 3b
       -0.030927213 -0.020715872 -0.011858406 0.0038871088
000040 57 b7 86 3c d1 7a c1 3c eb 69 ad bc 4b 94 4f bc
       0.016444845 0.023618134 -0.02116867 -0.012669633
000050 a6 e0 7a 3c 6e c0 01 3d 7d 74 97 bb f7 09 ec 3c
       0.015312349 0.031677656 -0.004622041 0.028813345
000060 5c 77 48 bb 1b 57 ce 3b ac 86 0c 3d 55 17 f5 bc
       -0.0030588722 0.006297005 0.03430812 -0.029918352
000070 0a 85 9f bc d7 d8 cd bb c4 60 35 bc c0 a4 06 3d
       -0.019472618 -0.006281953 -0.011070434 0.03287196
000080 c9 d7 a4 bc 02 e3 5d bc 86 72 b3 bc 75 45 f8 bc
       -0.020122426 -0.013542892 -0.021905195 -0.030306557
000090 62 64 93 bc eb 50 05 3d 47 dc 92 3c 96 70 9b 3c
       -0.017992202 0.032547873 0.017927302 0.018974584
0000a0 dd db 5f 3b 46 9a 82 bc f6 3a 07 3c ce a8 fb bc
       0.0034158148 -0.015942704 0.0082538035 -0.03072014
0000b0 48 81 c2 bc 17 43 85 bc e7 7c bf 3c ba eb b7 3c
       -0.023743287 -0.016267342 0.023374988 0.02245127
0000c0 10 68 58 bc 9c 10 60 3a 99 1e c9 3c 1a 22 19 3d
       -0.013208404 0.0008547397 0.024550723 0.037386037
0000d0 11 28 87 3c 05 ed ef 3b 8e a9 d5 3c be ce 93 bc
       0.016498597 0.007321956 0.026081827 -0.018042918
0000e0 f7 66 15 3c 63 5c c9 bc 35 bf b1 bc 1e 35 7e bc
       0.009118787 -0.024580186 -0.02169762 -0.015515594
0000f0 a6 05 97 3c c3 9f 88 3c da 8f 95 bc 0c a7 50 3c
       0.01843531 0.016677743 -0.01825707 0.01273514
000100 aa be ad 3c f0 d4 34 bb a6 4b f7 3a 49 9e 04 3c
       0.02120908 -0.002759274 0.001886715 0.008094379
000110 20 9f a9 3c b9 d6 03 3d 75 ea eb bc de aa 79 bc
       0.02070576 0.032187197 -0.028798321 -0.015238492
000120 52 83 2c 3c bb 68 e4 3c 89 25 f3 3c b0 13 ed 3c
       0.010529356 0.02788197 0.029680984 0.028940052
000130 7b e4 00 3c 40 65 ed bc 92 54 99 3b ae ef a1 bc
       0.007866974 -0.028978944 0.004679271 -0.019767608
000140 4f f7 f6 bc f9 12 0a 3d ca 80 ef 3c 05 83 04 bd
       -0.030147223 0.0337095 0.029236216 -0.032351512
000150 ba e0 15 3c bf 2c 59 bb e6 66 4f bb b2 18 5d bc
       0.009147817 -0.0033138243 -0.0031647026 -0.013494657
000160 70 de 80 3c 36 9b 95 bc 8a 84 75 3c bb 7e 9e 3c
       0.015731066 -0.018262487 0.014985213 0.01934754
000170 c9 2f c7 3c 36 dc 20 3c 18 05 1a bd 72 8a d1 bc
       0.024314778 0.009818127 -0.037602514 -0.025578711
000180 b8 ff 4a 3c 12 2f 2d 3b fc 7e 00 bd e7 da d0 bc
       0.01239007 0.0026425761 -0.0313711 -0.025495006
000190 52 6b d7 3c b0 52 9d 3c 82 55 54 bc 71 c5 47 bc
       0.026296292 0.019204468 -0.01295984 -0.01219307
0001a0 74 52 10 bd 21 3e 85 3b c1 f3 91 bc 4e 69 9b bc
       -0.035234883 0.0040662442 -0.017816426 -0.018971112
0001b0 f7 05 95 3a 51 0d 00 3c 1e c1 48 bc a6 90 bf 3c
       0.0011369576 0.007815675 -0.012253074 0.023384403
0001c0 df 78 99 bc ff ca 0c 3d 91 6a da 3c e6 30 dd bc
       -0.018734394 0.03437328 0.026662143 -0.027000856
0001d0 8b 02 ca bb 48 67 66 3b a0 08 e3 3b 7c 77 15 3c
       -0.006164854 0.0035156775 0.0069285184 0.009122726
0001e0 6d 16 50 3c 2d 68 a0 38 d6 4f 8f bc 13 fd 7d 3c
       0.012700659 7.648799e-05 -0.017494123 0.015502232
0001f0 7a 1d 03 bd 61 17 64 bc bc d3 9d bb 1c b4 8a bc
       -0.032010533 -0.01392159 -0.0048165005 -0.016931586
000200 15 b4 9e bb fb 0f 8e bc 0a 91 09 3c 56 36 8a 3c
       -0.004843245 -0.017341604 0.008396396 0.016871613
000210 0a 17 59 bc 26 7b 94 3a 74 e7 03 3d 2d c6 85 38
       -0.013250122 0.0011328205 0.032203153 6.378847e-05
000220 6d 82 04 3c a9 30 ba 3a 38 96 30 3c 7e 98 cb 3c
       0.008087737 0.0014205176 0.010778002 0.024852987
000230 d6 8e 12 3d 89 81 cb 3c f0 ec 12 3d d3 4a a9 b9
       0.03578075 0.02484204 0.035870492 -0.0003228994
000240 11 5a f0 bc d8 b2 9a bc 04 b3 a5 3c 07 3a f9 bb
       -0.029339822 -0.018884107 0.020226963 -0.0076057944
000250 59 a3 05 bd 7b 09 3c bd f3 07 3d bd aa 4c f0 bc
       -0.032626484 -0.04590748 -0.04615016 -0.029333431
000260 ea 56 97 bb 22 4a cd 3c ce a1 43 3c 1a d5 16 bd
       -0.0046185153 0.025059763 0.011940433 -0.036824323
000270 96 8e 96 3c b6 89 72 bc 8b 73 61 3c e2 76 bc 3c
       0.018378537 -0.014803341 0.013760458 0.023005906
000280 ab 80 ec 3c 4f 1c 1a 3c df 84 00 bd 82 1b 0e bd
       0.028869947 0.009406163 -0.031376716 -0.034694202
000290 74 c4 d4 ba f7 c2 09 3c 2f 8e 62 bc 01 f3 7d 3c
       -0.0016232864 0.0084083 -0.0138278445 0.015499831
0002a0 cd 24 ed bc 30 20 65 39 aa 71 07 3d 52 8c 64 bc
       -0.028948212 0.00021851133 0.033067383 -0.013949471
0002b0 10 6a ee 3c 15 50 5b 3b 7b 19 4d bd 91 c8 8b bb
       0.029103309 0.003346448 -0.05007313 -0.0042658527
0002c0 27 53 08 bd 9f 2f 4d bd ff 1b bc bb c7 98 48 bd
       -0.033282425 -0.050094243 -0.005740642 -0.048973825
0002d0 f4 ee 12 bd f6 6b 3a bd 96 f4 92 bb 79 cc de 3c
       -0.035872415 -0.045513116 -0.0044847233 0.02719711
0002e0 c7 86 64 3d fa 46 1b 3d 59 ff bb 3b 11 01 8f 3b
       0.055792596 0.037909485 0.005737227 0.004364141
0002f0 13 15 ce bb 29 69 ab 3c d5 fe 28 3c f2 97 98 3c
       -0.0062891333 0.020924168 0.010314663 0.01862714
000300 10 4a 00 bd cf 20 b8 3b 1f 85 c3 bc 27 a5 88 bc
       -0.03132063 0.0056191455 -0.023867188 -0.016680313
000310 30 14 92 bc d9 7d 68 3c f9 af 9a bc 24 4b 0b bb
       -0.017831892 0.014190161 -0.018882738 -0.0021254504
000320 b4 19 e0 ba 05 7c 44 3c 4c a2 6d bd 1c ae 8e bd
       -0.0017097504 0.011992459 -0.058016106 -0.069668025
000330 07 2c 33 bd 78 23 e8 bb 51 3c 41 bd 04 d2 da bb
       -0.04374316 -0.0070843063 -0.047176663 -0.006677868
000340 e9 e0 98 bc 6d 8c a1 bc f1 17 81 bc e3 0a e0 3c
       -0.018661933 -0.01972028 -0.015758486 0.027348941
000350 a3 d3 d5 3c 68 b4 4d bb 49 7e a7 3c 95 4c e0 3c
       0.026101893 -0.0031388048 0.02044596 0.027380267
000360 c4 48 64 bc 54 cf 2b bc 74 1b b4 3c c9 3f fa bc
       -0.013933364 -0.010486443 0.021985747 -0.030547993
000370 03 20 95 3b 8b bb 28 3d ec bd 79 3c 26 c8 64 3b
       0.0045509352 0.04119448 0.015243035 0.0034909337
000380 4b 4e e9 bc 3a e3 9c 3c 65 11 bf bc 89 5e 30 bc
       -0.028479716 0.019151319 -0.023323724 -0.010764726
000390 17 fa 8c bc a2 2a bb bc 7e 7f ea bc 3d 8b a0 bb
       -0.017209096 -0.022847477 -0.028625246 -0.004899411
0003a0 a5 49 d3 ba 1e 2d b3 3c d7 7f 65 3c 86 92 e5 bc
       -0.001611997 0.0218721 0.01400753 -0.02802397
0003b0 29 80 ce bc 7e ee 03 bd d4 bb e0 bc f9 4e 7e bc
       -0.025207596 -0.032209866 -0.027433313 -0.015521758
0003c0 1b aa 1c bc 93 4f 5d 3c be d0 95 3c 85 81 22 3d
       -0.009562041 0.0135077415 0.018288013 0.0396743
0003d0 6d e7 81 3c a3 8b 96 bc df 2e 07 3d 0e 3e 9f bc
       0.015857423 -0.01837713 0.033003684 -0.01943877
0003e0 7b eb a9 3c 31 c0 9d 3b bc 78 49 bc 72 94 02 3c
       0.020742169 0.0048141708 -0.012296852 0.007969962
0003f0 6e f4 00 3d c4 18 0f bc 11 d9 9c bc 7e 75 75 bc
       0.031483106 -0.008733932 -0.019146474 -0.014981626

bias f4 [256]
000000 fa c9 66 bc 06 b1 6f 3c 2c 79 9a 3b 06 4b 99 bc
       -0.014086241 0.014629608 0.004714152 -0.018712532
000010 44 eb 3c bc 37 cd bd 3c 60 e8 95 3a 95 9a 29 3c
       -0.011530701 0.023169143 0.0011437051 0.010351797
000020 f7 7b 7a bc 3c d2 b3 3a b8 68 ac 3b ef e4 1f 3d
       -0.015288345 0.0013719271 0.005261507 0.039036687
000030 16 95 af 3c 5a 08 0c bd 15 7e d6 3c f4 da e6 bc
       0.021433394 -0.034187652 0.026183167 -0.028180577
000040 8a ce 77 3c 8a 58 2c 3c bf ec 70 3c d4 7c 15 bd
       0.015124926 0.010519156 0.014704882 -0.036496
000050 0a 43 15 bc 4c be 36 bc da c6 b1 bc 37 31 63 bb
       -0.009110222 -0.011153769 -0.021701265 -0.0034666786
000060 41 47 1f 3c a1 a2 b7 bb 84 b2 ff bb 4d 7b 10 3d
       0.009721578 -0.0056041037 -0.007803263 0.03527384
000070 f2 6e 14 3c c7 d0 98 3c ab d7 69 bc 44 65 fe 3c
       0.009059655 0.01865424 -0.014272611 0.031054147
000080 46 5f 5b 3c 80 2d c9 bc 61 b1 f3 3c 2e 98 68 3c
       0.013389414 -0.024557829 0.029747667 0.014196439
000090 cb 66 f9 3b 4f 42 e6 3c af 1e 9e 3c 52 ba d8 bb
       0.007611131 0.02810779 0.01930174 -0.006614008
0000a0 c7 5a 52 bc 55 00 f0 3c 4e 70 c6 bc 95 14 81 bc
       -0.012839026 0.029297033 -0.024223473 -0.015756885
0000b0 9c 2e 01 bd 0f a0 dd 3c 49 40 7a 3c b9 ed c6 bc
       -0.03153859 0.027053861 0.015274116 -0.024283277
0000c0 2e d8 a9 bc 6b b4 ca bc 26 77 17 bc 0d b6 b5 3b
       -0.020732965 -0.024744233 -0.009244716 0.005545384
0000d0 47 93 45 3c f2 21 27 3c d6 d0 85 3c 12 4d be bc
       0.012059039 0.010200964 0.016334932 -0.02323011
0000e0 00 77 b0 3c ac b2 f7 3a 0b 1b ed bc 05 4e c1 bb
       0.021541119 0.0018897853 -0.02894356 -0.005899193
0000f0 12 11 ec 3c f9 9e 10 3c f6 8c 0d bd d8 09 82 bc
       0.028816734 0.008826965 -0.03455826 -0.015873834
000100 ef 64 09 bc 7f c4 9d bc ee 29 31 bb e2 2a e3 3c
       -0.008385881 -0.019258736 -0.0027033049 0.027730409
000110 7c 4f fc bc c3 1f f4 3c f2 3d bf 3c b1 3d cd 3c
       -0.03079962 0.029800301 0.023344968 0.02505383
000120 fd ac ad bc dc 14 4f 3c 5f f4 ab 3c 55 17 97 bc
       -0.021200651 0.012639251 0.020990549 -0.018443743
000130 6a ff f4 bc df 3d a6 3c d2 af 90 3c a1 06 f1 bc
       -0.029906947 0.020293174 0.017661963 -0.029422106
000140 7a a6 bc 3c 91 c0 b9 3b de 26 c4 3b 47 e5 98 bc
       0.023028601 0.0056687077 0.0059860786 -0.018664015
000150 df ee 00 bd 5f a5 b0 3c f3 46 fd bc 1b af 40 3c
       -0.031477805 0.02156323 -0.03091762 0.011760498
000160 0e 92 0b bd 5f 8b 95 ba 2f e1 4b bc 92 ff 0a bc
       -0.034074835 -0.0011409334 -0.012443825 -0.008483784
000170 c8 2e 35 3c fa fa e5 3c 52 75 03 bd f7 63 f6 bb
       0.011058517 0.028073777 -0.032094307 -0.007519241
000180 a5 54 ea 3c 52 5b 65 bc 8e f5 d2 bc ad 23 ba 3c
       0.028604815 -0.013998823 -0.025751855 0.02272209
000190 71 c9 96 3c b6 66 03 bd fb 31 16 3c 15 75 dc bc
       0.018406602 -0.032080375 0.00916719 -0.026911298
0001a0 87 4f b0 3c b5 2e 7d 3c a4 39 12 3c cf d0 16 bd
       0.021522297 0.01545303 0.008924875 -0.03682023
0001b0 31 2a 2b 3c b0 96 d7 3c 35 f5 99 3c 2c 04 bd bc
       0.010447071 0.02631697 0.018793682 -0.023073278
0001c0 07 4a f2 bc 87 79 9d bc 50 bc 06 bd 6a 55 9d 3c
       -0.029576315 -0.019222988 -0.032894433 0.019205768
0001d0 78 72 d9 bc 66 ca 85 bc 79 52 69 3c 7c 5e 8b bc
       -0.02654384 -0.016331863 0.014240854 -0.017012827
0001e0 f1 72 2d 3c e6 19 0b 3d 91 a4 78 bc 46 1e 30 bd
       0.010586486 0.033960246 -0.015175954 -0.04299762
0001f0 d1 7a 6d bb 6f 0e bb bc 3d 36 99 bc 33 26 e6 3c
       -0.0036236534 -0.02283403 -0.01870262 0.028094387
000200 90 22 21 bb 1e 75 81 bc 79 b4 74 3c ad 96 1b 3d
       -0.0024587251 -0.015802916 0.014935606 0.037985492
000210 bd c8 96 bc 29 e7 c6 bc 2b d5 5a bc ef ea 42 3c
       -0.018406266 -0.024280148 -0.013356487 0.011896833
000220 3d 44 e8 3b 14 48 dc 3c 3b a8 b7 3b fc 2c 3a 3b
       0.0070882128 0.026889838 0.0056047714 0.002840816
000230 ee d5 bd bc 96 a9 93 3c f1 09 c3 3b 81 2d 02 3c
       -0.023173299 0.0180252 0.005952113 0.007945419
000240 78 74 c0 bb 5c 06 12 bd f5 82 1d 3d 06 ee d5 bb
       -0.005873259 -0.035650596 0.03845497 -0.0065286187
000250 d7 a2 33 ba 6c b5 39 bc 65 27 e8 bc 5e 35 6a bc
       -0.0006852573 -0.011334758 -0.028339097 -0.01429495
000260 c9 17 f7 bc d8 82 4a 3c 0a f9 b3 3b 40 22 4b 3c
       -0.030162709 0.012360297 0.0054923343 0.012398303
000270 db 96 35 3c 12 eb 00 bd 82 d4 dc ba fa 50 df bc
       0.01108333 -0.03147418 -0.0016848 -0.027260292
000280 21 82 a9 bc de bd cc bc 64 5e 02 bd bb 71 5d 3c
       -0.020691933 -0.02499288 -0.0318283 0.013515885
000290 e5 c9 92 bc 10 96 17 bd 12 e8 26 3c 5e df fb 3c
       -0.017918536 -0.037008345 0.010187166 0.030746158
0002a0 9a f0 b5 ba 81 ab e2 3b 07 fd c1 bc 60 62 ba 3c
       -0.0013880909 0.0069174175 -0.023680223 0.022751987
0002b0 6f 29 86 3c d6 1c b0 3c d8 11 34 bd a6 55 e7 bc
       0.016377179 0.021498125 -0.04396233 -0.028239083
0002c0 39 75 6d 3c 1e 5d d1 3a 59 bc d9 bc f3 f3 98 3b
       0.01449328 0.0015973186 -0.026579069 0.004667753
0002d0 c5 94 ff 3c 0c 77 6f bb f8 b8 f9 3a 6e 64 f7 bb
       0.031198869 -0.0036539463 0.0019052317 -0.007549814
0002e0 4f 97 9a 3b d4 7c e3 bb 70 1c a5 3c a2 62 8b bb
       0.0047177444 -0.006942371 0.020155162 -0.0042537013
0002f0 de cd bc bc 06 d9 e6 bc de 75 1e bc 02 f0 91 bc
       -0.023047384 -0.028179657 -0.009671656 -0.01781464
000300 cd af 96 bc 8b 34 6a 3c 52 9d d4 3c 5a 7e ca 3b
       -0.018394375 0.014294754 0.025953922 0.006179613
000310 b3 8a b5 bb b5 e0 1c bc ea 52 0a bd 2f e3 ea bc
       -0.005540216 -0.009575059 -0.03377048 -0.028672783
000320 3c 7d 15 bc de 4e b5 3c 72 c8 f0 3b 8b f0 c3 ba
       -0.0091240965 0.022132333 0.0073481137 -0.0014949007
000330 c2 3e e7 3c 7c d6 d5 3c cb 10 a2 3c 89 81 25 ba
       0.028228167 0.02610325 0.019783398 -0.0006313553
000340 cd 7b 00 bb 5f cc d4 bc 4b bc b2 bc 05 7c ed bc
       -0.001960504 -0.025976358 -0.0218183 -0.028989801
000350 33 91 d6 bb 02 71 ba 3c 7e 30 95 3c b2 9a c6 bc
       -0.006548071 0.022758964 0.0182116 -0.024243686
000360 10 59 17 bd 10 21 cf 3c ee 4b e6 3c bc b1 f1 3c
       -0.03695017 0.02528432 0.028112378 0.029503696
000370 ba a0 0b 3c 4c fa f5 3c d2 1a eb bc 46 36 a9 3c
       0.008522207 0.030026577 -0.028699312 0.020655762
000380 43 69 ba bc f3 d1 6a 3c 78 a4 18 3d 22 a9 ea bc
       -0.02275527 0.014332282 0.037266225 -0.028645102
000390 2e aa 2e bc e2 b9 4a bc 88 c4 67 3c c7 3a 03 3d
       -0.010660691 -0.0123734195 0.014145978 0.032038476
0003a0 b8 65 be bb ae 2a bd 3c c1 e6 a1 3c 8c b4 70 bc
       -0.0058104657 0.02309164 0.019763352 -0.014691483
0003b0 d6 f7 cd 3a f3 7c a3 3c a6 ca 90 3c 71 5a 8b bc
       0.001571412 0.019957041 0.017674755 -0.0170109
0003c0 7b 19 25 3b e0 86 fb bc 6c b1 f0 bb 14 99 89 3c
       0.002519219 -0.030703962 -0.007345369 0.016796626
0003d0 93 0d 39 bb 0b cf e8 bc 23 6c 3d 3a 51 f6 64 bc
       -0.002823685 -0.028419038 0.00072258915 -0.013974742
0003e0 c2 4b e8 3b aa e9 b3 3c a9 e6 8a 3c 36 3c d8 bc
       0.007089109 0.021962006 0.01695569 -0.026395898
0003f0 81 1b bd bc 1b c1 92 3b 4b 22 b8 bb 6b 5a 2d 3c
       -0.023084404 0.0044785864 -0.0056193224 0.010580639

weight f4 [128, 256]
000000 35 9d e6 3c 0b f4 a4 3b b1 fd 44 3d ed 02 b3 3c
       0.028151134 0.005033975 0.0480935 0.021851981
000010 17 3a ac bc 48 69 9b 3c fc f4 94 bc a2 ce 01 3e
       -0.021023793 0.0189711 -0.018183224 0.1267648
000020 c2 d6 43 3c 08 4a ec bd 03 3d 2e bc 9a 23 fb 3d
       0.011953058 -0.11537558 -0.0106346635 0.1226265
000030 2a c7 8a 3d 5f 99 08 3c 92 b1 ea bc bc 0b 55 3d
       0.06776269 0.008337348 -0.028649125 0.052013144
000040 ed 42 02 be 15 cf a9 bc ff 7d ba 3d 86 a0 af 3c
       -0.12720843 -0.020728627 0.09106063 0.021438848
000050 ba 4a 8f bd 7c c9 00 3d e8 dd e9 bd 75 8f 8c 3d
       -0.06996675 0.03144215 -0.114192784 0.068633
000060 e7 b3 db 3b a1 59 4f bd 04 68 92 bc 08 ad 1e bd
       0.0067047956 -0.050622586 -0.017871864 -0.038739234
000070 2f 06 c1 bc be 5a f7 bb 35 82 a1 3d 69 f9 db 3c
       -0.023562519 -0.007548659 0.07886163 0.026852326
000080 d3 97 9f bc 68 a0 c0 bc e0 18 25 3c bd 75 a4 3d
       -0.019481575 -0.023513988 0.010076731 0.08030269
000090 0d c3 3c 3d 34 8e 4c 38 72 21 cf 3d 97 5f 8e 3d
       0.046084452 4.8769827e-05 0.10113801 0.06951826
0000a0 b4 36 af 3c 83 ab 22 be 8b d1 33 bb b5 be 59 bc
       0.02138839 -0.15885739 -0.002743813 -0.013290097
0000b0 1f 0d f6 3a bc 73 e8 3c d2 ee 45 3d a0 97 12 bd
       0.0018772221 0.028375499 0.04832346 -0.035789132
0000c0 3d d6 39 bd 54 88 08 be 1b b2 b1 3d 65 e9 fe 3c
       -0.04537033 -0.13333255 0.08676549 0.03111715
0000d0 0d d9 a3 bb 3d e7 b5 bc 9b 42 7b 3d 2d 24 d9 bc
       -0.0050002397 -0.02220499 0.061342817 -0.026506508
0000e0 bb 00 c5 bc 37 39 29 bd bc 39 ad 3b ab 92 61 bd
       -0.0240482 -0.04131433 0.0052864235 -0.055071514
0000f0 5f 68 3b bd 0a e4 21 3d 4e e9 83 bd a9 a5 90 3b
       -0.045753833 0.039524116 -0.06440984 0.0044142795
000100 1c 04 9e 3d 1d 55 fe bc 94 02 81 bd 3c 6d c2 bc
       0.077156276 -0.031046445 -0.0629932 -0.023733728
000110 70 c8 7c bc e2 c6 23 3d de ba 86 3c fa f0 b0 bd
       -0.015428647 0.03998459 0.016446527 -0.08639713
000120 c4 1f 3f 3c f1 8f e4 3b ab af 6f be e5 75 06 3d
       0.011665288 0.006975167 -0.23406856 0.032827277
000130 74 6f 11 3d dd 8b e3 3d a4 12 02 bd 67 e4 d0 3c
       0.03550668 0.11110661 -0.03175606 0.025499536
000140 7d e2 3e bd 02 77 05 bd 55 d4 8c 3c c6 70 85 3d
       -0.046602715 -0.032584198 0.017191092 0.065156505
000150 50 72 73 3d 8b bd da 3d 60 8f af 3c be 57 d5 bc
       0.05943519 0.10680684 0.021430671 -0.026042815
000160 28 cd 69 bd f0 97 99 3d a7 82 b5 bd 24 a5 1e bd
       -0.057080418 0.07499683 -0.088628106 -0.03873171
000170 a2 e0 0e 3d b2 12 89 39 b7 b5 ae bc 58 95 76 3d
       0.034882195 0.00026144605 -0.021326883 0.06020102
000180 b4 40 60 3d 67 ec e5 3b 22 5d 3f 3d ef f6 22 3d
       0.054749206 0.0070167067 0.046719678 0.039786275
000190 e5 4c ce bd 38 b3 c6 3b 57 a4 a8 bc df ce 23 3d
       -0.1007326 0.006063845 -0.020586176 0.03999221
0001a0 e0 5e 13 bd dc a6 1a bd e3 77 27 bc 33 b1 77 3c
       -0.03597915 -0.037756786 -0.010221454 0.015117931
0001b0 76 8a ff bc f2 88 26 3c 7b 18 a5 3d da 64 72 bc
       -0.031193953 0.010164486 0.0806131 -0.014794553
0001c0 3b ed 09 bc d6 95 c3 3c 21 b5 0f be 16 9a 08 be
       -0.008418377 0.023875158 -0.14033939 -0.13340029
0001d0 74 f1 ad 3b 13 6d aa 3b 63 fc 93 3d b7 75 22 ba
       0.0053083245 0.005200991 0.07225873 -0.00061973504
0001e0 d8 08 5b 3d bb 93 d2 3c 9b 0f 46 bd f5 f4 01 bd
       0.05347523 0.025705209 -0.048354726 -0.03172775
0001f0 35 3e 82 3d 3b 24 1a 3d 21 73 13 be 72 8c b3 bc
       0.06359521 0.03763221 -0.14399387 -0.021917555
000200 2d de 9a 3c 2d 00 e8 bd c5 dd 65 3d 01 f8 33 bd
       0.01890477 -0.113281585 0.0561197 -0.043937687
000210 69 2e 1b bd 9e c1 c5 3c 77 b3 16 3d 17 67 8b 3d
       -0.037886057 0.024140175 0.036792245 0.06806772
000220 c7 dd 88 3d 48 73 66 3c 9f 71 82 3d 53 e7 3e bc
       0.06682926 0.014065571 0.06369328 -0.011651832
000230 a2 c4 43 3d e2 7d 86 3d 18 58 07 bc 11 1b 06 bd
       0.047794946 0.06566979 -0.008260749 -0.032740656
000240 d9 fd ed 3c 30 a4 98 3c 0b 7c 28 3d 50 35 03 bc
       0.029051708 0.018632978 0.04113392 -0.008008316
000250 59 39 92 b9 b3 33 47 3d 19 76 01 be 9a 2f 66 3d
       -0.00027890017 0.04863329 -0.12642707 0.05619774
000260 68 d0 14 3c 9d 90 b2 3c 37 ef 08 be a0 22 66 3d
       0.009082891 0.021797473 -0.13372503 0.056185365
000270 bf af e0 bc f0 fe 29 3d 4d 51 5e bd 4b 7e 11 be
       -0.027427552 0.041502893 -0.054276753 -0.14208333
000280 40 c8 ce bc 0d e6 4a 3d 44 b1 39 be 41 8c 6f be
       -0.025241971 0.0495358 -0.18134028 -0.23393346
000290 e5 ab 91 3d dc 9d 5b be 11 05 d3 3c 68 79 59 bd
       0.071128644 -0.21446937 0.025759252 -0.053094298
0002a0 ee 65 13 bd 7e 8e df 3c 05 ae 1c 3b e8 13 49 3c
       -0.03598588 0.027289625 0.0023907435 0.012272812
0002b0 73 a3 d5 bc b0 11 0c bc f5 c6 ec bd 4b f1 a2 3c
       -0.026078915 -0.008549139 -0.115613855 0.019890448
0002c0 75 58 ef 3b da 2d c6 3d 1e d1 88 3d b9 e1 03 bd
       0.007304246 0.09676714 0.06680511 -0.032197688
0002d0 93 ae 3c 3d 60 6d 42 3d 17 20 af bb 6c a5 a9 bb
       0.046064924 0.04746759 -0.0053444016 -0.0051771905
0002e0 6b 19 4b bc ad 6c f4 3b d0 c7 8f ba 1c 32 28 be
       -0.012396197 0.007459244 -0.0010969583 -0.16425365
0002f0 5c d7 af 3c e5 6a f6 3c ad 94 54 bd bb af 51 bd
       0.021464996 0.030080268 -0.0518996 -0.05119298
000300 d1 6c fe bd 42 65 8b 3c b2 ee 68 3c 04 87 82 bc
       -0.12423099 0.017016057 0.014217066 -0.015933521
000310 a0 83 45 bc 27 b2 32 bd 2f 79 0a bd f6 25 95 bd
       -0.012055308 -0.04362693 -0.033806976 -0.07282631
000320 4b 0f eb 3c e9 6e 22 3d 6a 55 c2 3c 25 e6 85 3d
       0.028693816 0.039656553 0.02372237 0.06538037
000330 20 cf 67 3d 58 a1 f2 3c 0e 06 06 bc 1a f6 5f 3d
       0.056594014 0.02961795 -0.0081801545 0.05467806
000340 1c 9a f0 bd f1 67 de 3c 33 4f 8f bd 37 85 96 3d
       -0.11748144 0.027149172 -0.06997528 0.073496275
000350 59 fd 58 be 2c e6 10 3d 83 4a a1 bb e9 34 f7 bc
       -0.21190394 0.03537576 -0.0049222126 -0.030176597
000360 14 7e 25 3e ca 6e ac 3b d8 ca 53 3d 2c 86 91 3d
       0.16161376 0.0052622305 0.05170712 0.071056694
000370 8d e9 bf bc 52 c5 3a 3d 6c 6b 01 bc 5c ac 39 3d
       -0.023426795 0.045598336 -0.0078991465 0.04533039
000380 b6 56 6c 3d 37 85 b6 bc 4c 2d a9 bd 8b bf 0d bd
       0.05769988 -0.022280319 -0.08260593 -0.034606498
000390 27 e4 40 bc fb 5f c3 bd 22 39 dd bc 4d 17 38 3d
       -0.011773146 -0.09539791 -0.027004782 0.044944096
0003a0 f6 8c 2b bc 7b b1 02 3d e9 f4 8c 3d d0 3c c7 3d
       -0.010470619 0.03190754 0.068826504 0.09728396
0003b0 a0 17 14 bc 60 d6 03 bd 7c e4 63 bd b0 4c 23 3d
       -0.009038836 -0.032186866 -0.05563782 0.039868057
0003c0 ae e1 8b 3d b5 89 12 3c 22 dc a3 3b 28 31 d8 bd
       0.06830154 0.008943965 0.005000607 -0.10556251
0003d0 fc ae 79 3d ed 47 5d bc 55 34 02 bd 96 a8 91 3d
       0.060957894 -0.013505918 -0.03178819 0.07112233
0003e0 bc 9c 94 bb ee 03 0f bd 7c 78 51 bd ba 81 1c 3d
       -0.0045352858 -0.034915857 -0.051140293 0.038209654
0003f0 93 8e 94 3c 84 e0 10 bd a8 c5 6c bd 34 c2 4c bd
       0.018134391 -0.035370365 -0.057805687 -0.049989894

bias f4 [128]
000000 6f 1a 33 bd cc 58 5a 3d f5 36 69 bd 7c 03 85 3c
       -0.04372638 0.05330734 -0.056937177 0.016237013
000010 4d 8a 88 3d 0c 9d ef bc 8e 52 43 bd a1 e7 87 bc
       0.06667004 -0.02924969 -0.047686152 -0.016589941
000020 2f ec 0c bd f5 df e6 3c af e9 1c 3d dd 25 b8 3c
       -0.03440493 0.028182963 0.038308796 0.022478992
000030 fb f2 00 bc 0d 71 bc bc d2 ce 3b 3d f9 c7 8d 3d
       -0.007870431 -0.023003126 0.045851536 0.069229074
000040 a0 c4 94 3c 96 4a 10 bd d9 1d 41 3d 6d 46 df bb
       0.018160164 -0.03522738 0.047147606 -0.0068138153
000050 8c 58 1b 3d 96 b9 e4 bb 15 f2 91 bc a7 86 8d bb
       0.03792624 -0.0069801314 -0.017815629 -0.0043190303
000060 b3 26 7c 3d 5b 1e e9 bc a5 91 06 bd ed 94 54 3b
       0.061560344 -0.028456857 -0.03285374 0.00324374
000070 5b 98 1f bd 02 6c 88 3d c3 eb 1d bc d8 a6 33 bd
       -0.038963657 0.06661226 -0.0096387295 -0.043860286
000080 e9 a6 3b 3d 97 71 05 bd 24 da 61 3c fb 2b 17 3d
       0.045813475 -0.03257903 0.013784919 0.036907177
000090 39 58 02 bd 9f 94 91 39 4f 33 f9 bc e3 68 60 bd
       -0.031822417 0.00027767287 -0.030419974 -0.054787528
0000a0 d7 d6 3c bd 5c 83 43 3c a0 47 e5 3c 42 90 24 bd
       -0.046103325 0.011933174 0.027988255 -0.040176637
0000b0 1c 09 e6 3c 48 b7 04 3c 82 47 01 bd 8f 56 1d 3d
       0.028080516 0.008100338 -0.031562336 0.038412627
0000c0 9d cd 0d bc c3 e6 da bb f4 ad 61 bd a2 c1 e0 3b
       -0.008654979 -0.006680341 -0.055097535 0.0068590203
0000d0 d1 99 b2 35 e8 1a 86 3d 5c 60 36 bd ef ae da 3b
       1.33068e-06 0.06548101 -0.04452549 0.0066736857
0000e0 9d 4c 88 3d a8 97 8e 3c a1 00 6a 3d c3 9e 6b 3d
       0.06655238 0.0174063 0.057129506 0.057524454
0000f0 8c fd 1b 3d cc 61 af 3c dc 6c 6c bd bf b7 29 bd
       0.038083598 0.021408938 -0.057721004 -0.041435
000100 cb 40 5a 3d a7 6a d1 bc 10 13 ed bc 44 93 49 3d
       0.053284448 -0.025563551 -0.028939754 0.04921271
000110 4b 14 26 bd dc 70 57 3d f8 5e c7 bc fd 6f 88 3d
       -0.040546697 0.052597865 -0.024337277 0.06661985
000120 24 5e 17 3d a3 df 0f 3d 25 84 57 bc b3 50 f4 3c
       0.036955014 0.035125386 -0.013154064 0.029823637
000130 aa ba 22 3c 8f ee e8 bc 54 5a 30 3d b1 49 01 bd
       0.0099321995 -0.028434066 0.043054894 -0.03156442
000140 3e 5b 2d bd 78 2f f3 3c c7 77 24 bd ff 7b ef bc
       -0.042323343 0.02968572 -0.04015329 -0.02923393
000150 c8 c7 6f bc bb 97 51 bd 3d 51 bd 3c 34 0a b1 3b
       -0.014635034 -0.051170092 0.023110026 0.0054028276
000160 b9 95 ba bc 7c 89 03 3d 3f b3 54 bc f8 d1 75 bc
       -0.022776471 0.032113537 -0.012982189 -0.015003674
000170 ab f5 47 3b 1f 23 79 3d 9c 65 f2 bc 4c 52 95 3b
       0.003051142 0.06082451 -0.029589467 0.0045569297
000180 f1 c9 72 3d a7 05 7c 3d a9 e5 79 3c 93 e2 37 bd
       0.059274618 0.061528828 0.015252509 -0.044893812
000190 8c 2e 23 bd ed 1e 60 bd 50 9f 60 bc 6d 64 78 bc
       -0.039839312 -0.054716993 -0.013709858 -0.015160662
0001a0 f2 ca 68 bd 29 81 d8 bc d7 ef 4d bd 06 ce 92 bc
       -0.05683417 -0.026428776 -0.050277557 -0.017920505
0001b0 67 8e b9 bc 5b 7d 38 3c c2 44 84 3d de b6 c8 3b
       -0.02265091 0.011260356 0.06458427 0.006125315
0001c0 b9 ed 03 bc 9d bc 64 bd 8e 7c fb bc 74 6f ed bc
       -0.008052283 -0.05584394 -0.03069904 -0.028983809
0001d0 a5 c1 90 3c 30 54 dc 3c 01 87 2b 3d 95 72 60 bd
       0.017670462 0.026895612 0.041876797 -0.054796774
0001e0 68 bb 5d bd cd 60 13 bd 86 ff 4a 3d 5a 23 26 3d
       -0.054133803 -0.03598099 0.049560092 0.040561058
0001f0 c9 72 2f bc 1b b9 3f 3d 7d 24 54 3d a1 64 cd 3c
       -0.010708519 0.04680739 0.05179261 0.025072398

weight f4 [10, 128]
000000 4d 03 69 3c 2a 16 f9 bc 12 96 ae 3d ed 22 1b be
       0.014221978 -0.030406076 0.085247174 -0.15150042
000010 ef d2 25 be 2e 73 01 3c d6 28 07 3e 17 39 cf 3d
       -0.16193746 0.007900996 0.13199171 0.10118311
000020 f4 30 91 bb c3 5d 1f bd 8f bf 36 be c6 b3 2d be
       -0.0044308845 -0.038907778 -0.17846511 -0.1696311
000030 1d 8a a2 bd 9c 48 a9 bd 01 3c a2 3d f3 38 bf 3d
       -0.07936499 -0.08265802 0.07921601 0.09337034
000040 fc c1 25 3e d7 59 9f 3d bb 2d 28 bd 10 5d 31 bd
       0.1618728 0.077808075 -0.041059237 -0.043301642
000050 13 f5 9f bc b6 70 c2 bc 9d 56 af 3d 32 d7 f5 bc
       -0.01952604 -0.023735385 0.08561442 -0.03000984
000060 4c 42 9e 3d ba 32 d6 bc 7f 63 b0 3d c1 23 94 3d
       0.07727489 -0.026147235 0.086127274 0.07233382
000070 1b ab 0a bd 01 bb ad 3c c6 f6 5e bd a5 bb ed bd
       -0.033854585 0.021207334 -0.05443456 -0.11608056
000080 36 9a 2a be 98 03 fd bd 77 f9 ed 3d 81 48 65 3d
       -0.1666039 -0.12354201 0.11619847 0.05597735
000090 4c 32 09 be ea fc 00 be 82 10 44 3d f9 73 39 bc
       -0.13398093 -0.12596479 0.047867306 -0.011319154
0000a0 d3 3a c3 3d 26 31 21 be c8 58 3f bd 4e 64 97 3c
       0.09532704 -0.15741405 -0.046715528 0.018480446
0000b0 3a e4 e7 3c 17 84 e4 3c 5f e5 4e be 1b c0 54 3d
       0.02830707 0.027895017 -0.20204686 0.05194102
0000c0 e3 a2 0d 3e 5a 90 be bb eb be c1 3d 81 2c b8 3c
       0.13831668 -0.005815548 0.09460243 0.022482159
0000d0 8f 31 d9 3c 9d ac 16 3d 0c 74 67 3c 2d 0a 5c bb
       0.02651289 0.03678571 0.014126789 -0.0033575401
0000e0 b8 1c 13 be b0 78 97 3d 63 1c 34 3d b1 38 03 be
       -0.14366424 0.07396066 0.043972384 -0.12814595
0000f0 ce 93 37 bd 49 33 7d 3d 78 d9 c4 3d 22 5f a9 3d
       -0.044818692 0.061816487 0.09611791 0.08270098
000100 b4 fe 96 bc b5 19 b5 bd 80 26 22 3d 59 67 f0 3d
       -0.018431999 -0.08842794 0.039587498 0.11738462
000110 b5 05 58 be 9b fb df 3d 6e 71 00 3e ab cb 82 bd
       -0.21095927 0.10936662 0.1254327 -0.06386503
000120 b6 f5 df bd f0 d4 0d 3e c8 ca 7d bc 5b 38 59 bd
       -0.109355375 0.1385076 -0.015490241 -0.05303226
000130 ba 95 37 bd c5 e8 37 be d4 06 c4 3d d5 a6 da bd
       -0.044820525 -0.17959888 0.09571615 -0.10676352
000140 c1 be 73 bd ee ce 13 3c 63 4f f5 3c 7f f2 eb 3d
       -0.05950809 0.009021504 0.029945081 0.11520862
000150 20 70 a5 bd fd 53 3a bb fc fa ba 3d 4e 1e 29 be
       -0.08078027 -0.0028431409 0.09129903 -0.16515467
000160 37 94 b2 3b ba b7 cb 3c 3e 65 25 3d 28 e1 b4 3d
       0.0054497975 0.024867881 0.040379755 0.08832008
000170 6b 1c 86 be 7c b8 8d bd 85 a2 7b 3d 4a da 8d 3d
       -0.26193556 -0.06919953 0.061434288 0.06926401
000180 e4 37 47 be 5d 09 28 bd 6d 42 4b be 33 d2 15 bd
       -0.19454914 -0.041024555 -0.19849558 -0.036577415
000190 34 23 bf bc 25 84 a9 3c 18 85 db 3d 51 30 92 bc
       -0.023332216 0.020692894 0.10718745 -0.017845305
0001a0 ac 2c 67 bb b8 72 85 3c 7a e7 2f 3c a3 13 e3 bd
       -0.003527443 0.016290054 0.010736341 -0.1108773
0001b0 13 6f 97 bd 0b 3b e5 3c 39 4f 56 be 52 cf a6 3d
       -0.073942326 0.027982255 -0.20928659 0.08145012
0001c0 91 52 a7 3c 7f 74 fd 3d e8 a1 6e bd 9e ea 39 be
       0.020425113 0.123757355 -0.058259875 -0.18155906
0001d0 1c d1 c1 3d 08 9e 99 3d a6 a5 a1 bd 56 c0 9c bc
       0.094637126 0.07500845 -0.07892923 -0.019134682
0001e0 68 eb 27 3d 54 a7 0a 3d 46 c6 c0 3d 9f f4 40 bd
       0.040995985 0.033850983 0.09412818 -0.04710829
0001f0 e9 0e 20 be 5b 01 bd bd cc 71 c8 bc 10 97 9d bd
       -0.15630688 -0.09228774 -0.024468325 -0.076948285
000200 91 43 60 be dc 59 a9 bd 7e 20 64 3d 4c 1e 1e 3e
       -0.21900775 -0.082690924 0.05569505 0.15441245
000210 e5 76 08 3d 8c cd f3 bd 86 d6 4d bd f7 02 94 bc
       0.03331651 -0.11904439 -0.050253414 -0.01806782
000220 df 0d d6 bd d0 19 9f 3d ae 7b ec 3d 1c ff bd 3d
       -0.104518645 0.07768595 0.115470275 0.09277174
000230 0b c9 8a 3d 14 85 99 3d 6f 2e b7 bd f6 75 c4 bd
       0.06776627 0.07496086 -0.089444034 -0.09592812
000240 3b 0d 0c bd 6f 7e 08 be 85 08 19 3e 10 1a cf 3d
       -0.034192305 -0.1332948 0.14944656 0.10112393
000250 fa b5 4c 3a bf 02 31 be e7 3d 85 bd 92 a8 07 3b
       0.0007809099 -0.17286204 -0.065059476 0.002069984
000260 c6 b7 7d bc fc 50 07 3e e5 9e d4 bd 94 35 3d be
       -0.0154857095 0.13214487 -0.10381869 -0.1847747
000270 f8 0f 10 be 09 be 95 bc d6 e2 e9 bc d2 42 b4 3d
       -0.14068592 -0.018279092 -0.028550547 0.088018075
000280 d7 37 a3 bd 28 c4 40 3e a4 46 37 bd 13 c8 54 bd
       -0.07969635 0.18824828 -0.044745103 -0.05194862
000290 e0 74 ae bd 7a 93 a2 3e c8 f5 73 3d b7 c5 62 bd
       -0.08518386 0.3175314 0.059560567 -0.055364337
0002a0 29 b9 38 be bb 3e e3 3d 52 6a cc bc 05 df 3c be
       -0.18039383 0.11095949 -0.024953041 -0.1844445
0002b0 a3 f3 6e 3c a0 39 52 3d 14 f9 66 3d 78 e3 11 3e
       0.014584455 0.051324487 0.056389883 0.14246929
0002c0 0f 64 61 3d 0f c7 71 3d 76 32 a7 3c 86 ed 4e 3e
       0.055027064 0.059027728 0.020409804 0.20207796
0002d0 6b e6 ec bd c4 b1 a2 3d 03 b8 23 be f4 6d c3 3d
       -0.11567386 0.07944062 -0.15988164 0.09542456
0002e0 5f ac b2 3c d8 4d bb bd 20 b4 cf 3c 87 63 52 3d
       0.021810709 -0.09145707 0.025354445 0.051364448
0002f0 f4 e7 0b 3c bb 8d d2 3c d9 81 46 bd 2c 66 ef 3d
       0.008539189 0.025702348 -0.048463676 0.116894096
000300 c1 7b 08 bd b7 4c c1 3d 54 f2 53 3c 1b bd 21 be
       -0.033321146 0.0943846 0.0129361935 -0.15794794
000310 af 7b 57 bd 61 ec 1a be 41 7e b0 bc 9b 19 19 bd
       -0.05260819 -0.15129234 -0.021544578 -0.037377935
000320 8e b7 6a 3d 4c aa 2f 3e ab d7 de 3d 2d 48 d1 3d
       0.057303958 0.17154807 0.10880979 0.102188446
000330 d4 da 29 3d 40 6e e4 bd 8b 04 04 3e 85 ee f2 bc
       0.041468456 -0.11153841 0.12892358 -0.02965475
000340 17 a9 49 bd f1 7a 70 bd 24 5e c7 3d 3f cc 7d 3d
       -0.049233522 -0.058710996 0.09734753 0.061962362
000350 f7 5e fd 3c c2 79 c3 bd f5 c7 3e 3d 51 80 c2 3d
       0.030929072 -0.09544708 0.046577413 0.09497131
000360 97 88 21 bd f9 3e 8d 3d 68 f0 03 be 94 f1 b4 bd
       -0.039436903 0.06896777 -0.12884676 -0.0883514
000370 87 33 10 be f8 7d 8b bd b5 ea ff 3d 65 1e 57 bd
       -0.14082156 -0.06811136 0.12495939 -0.05251922
000380 0a 71 6a 3c 18 c1 9e 3c e8 d4 3b 3d 38 09 9c bd
       0.014309177 0.019379184 0.04585734 -0.07618946
000390 c7 6c a0 bd 37 34 43 3d 43 91 e2 bc 51 f9 5e bd
       -0.07833248 0.047657218 -0.027657157 -0.054436985
0003a0 54 ee f6 3d fc 89 6d 3d 79 43 13 be 9c 7c 9f 3c
       0.12057176 0.05799292 -0.14381208 0.019468598
0003b0 a2 ac ff bc a3 d2 a1 3d d3 7c 60 3d 66 21 10 3b
       -0.031210247 0.07901504 0.05480654 0.0021992563
0003c0 8b ff ab bd 2e 6a 24 3d 3b 5f b0 3c dc 66 20 3e
       -0.0839835 0.040140323 0.021529784 0.15664238
0003d0 9e f6 6c 3d 43 f4 3b be 49 24 c9 bd 12 a0 13 be
       0.05785238 -0.18354897 -0.09821374 -0.1441653
0003e0 43 75 9b 3c 1a c0 52 bd 6b 09 e3 bd d2 3f 1b 3e
       0.018976813 -0.051452734 -0.11085781 0.15161064
0003f0 8b 68 97 3d 3d fb 0c bd 3e 1a 97 3d 09 49 51 3d
       0.07392987 -0.034419287 0.07378052 0.051095042

bias f4 [10]
000000 c1 7e af bd ae ed 1d bd 54 77 93 3d e8 46 37 3d
       -0.08569098 -0.038556747 0.072004944 0.044745356
000010 57 8e 1f 3d d6 f5 82 bd a9 51 ae bd 32 3d 5e 3d
       0.038954105 -0.06394546 -0.08511669 0.05425758
000020 4b 06 2a 3d 54 a2 94 bd
       0.041509908 -0.07257524
