mlp/mlp.pth (torch, 953855 bytes, 14 tensors)

weight f4 [256, 784]
00000000: e007 0939 a137 9d3c c6f9 e8bc 3209 d0bc
00000010: 1bb9 56bc 6050 203c 6cf0 9db9 95de e63c
00000020: 4b08 32bb 4256 1e3c e31e 27bc f4d9 d4bb
00000030: 9b95 2abd e8f0 fbbc cd23 a9bc 63c6 88bb
00000040: fd61 693c bf62 af3c 885a bfbc 45a2 73bc
00000050: 240a 573c 94a3 f13c f16f dfbb dbfc d93c
00000060: 7b2d acbb 1b5a 863b 8084 033d 357e 03bd
00000070: 807a b1bc cdfa 0abc 1b4c 59bc 5b2f fb3c
00000080: 9f45 89bc 20eb 07bc a49c 8cbc 6ae0 e1bc
00000090: 0609 97bc 5558 0b3d 5648 543c 1c59 62bb
000000a0: cd05 7dbc 3c46 c0bc 84fb 0a3c ee28 12bd
000000b0: 5d5a 5ebc be74 90bc 711b 1a3c 034f 933c
000000c0: 472e a8bb 55b6 91bb 9c8e e73c c7b8 453d
000000d0: be3c 6a3c 7103 a83b 10b7 c33c c1d8 a5bc
000000e0: 62db e23b 6544 dbbc dd19 00bd b135 c6bc
000000f0: dd2f a13c 9639 543c f5c1 cfbc 8397 0b3c
00000100: ea76 303c d46a 65bc d8d7 f8bb e188 e7bc
00000110: 3d1e 253b 3082 593d cc25 bb3b fc3f d73c
00000120: 32cd 1d3d 8565 cb3c 5405 f03c 451b 693c
00000130: da87 0d3c 30e7 cdbc 2156 5f3c 19f9 63ba
00000140: f8fd e6bc f787 873c de6f dd3c 4d8e 0dbd
00000150: b6cf e33b 2f97 b4bb 6924 b4bc 0703 7dbc
00000160: 1c96 b73c 424d aebb c824 1b3d fd60 073d
00000170: 1007 783d bd92 1a3d 1ef9 09bd 8983 1cbd
00000180: 0e37 e13c ba63 813d 5e8d 583a 4943 68bc
00000190: 855d 863d c266 e53c 2e56 c5bc 6eb5 9bbc
000001a0: 50a8 c5bb 4ac3 153d e550 793c 2c37 493c
000001b0: 937a 6abc 57c6 f1bb 4db5 a0bb 0d74 ad3c
000001c0: 2772 abbc 5df5 a03c d630 fa3b 2b3c c1bc
000001d0: eff8 323b af4c a63c c5aa 293d fb72 093d
000001e0: f223 f93c 5e85 803b 2d28 c8bc d8bf e13b
000001f0: dd51 e8bc db7f 44bc cae0 69bc 9874 f7bc
00000200: 9b3e 3ebc a4df 7ebc 3c85 383c 3ab3 3c3b
00000210: 1059 8fbc 497e 46bb 6f53 473d 66c3 dbbc
00000220: 6fe6 f6bc 272e c4bc ee60 093c 903b 8c3c
00000230: c0a0 093d a29a b93c af6a 0c3d cf87 1fbc
00000240: 405d 38bd bc51 7abc 46ff e93c 261a 91bc
00000250: 31a8 5ebd cbf0 6fbd 8451 34bd 6e81 0dbd
00000260: 9941 57bc eef5 de3b f94e 6639 a7eb 05bd
00000270: d704 1b3c b159 24bd 79ef 8539 c134 223b
00000280: 9a19 20bb fac0 84bc 5924 1abd 27ff 00bd
00000290: a7b2 c6bc efd6 443a 6c91 0a3c 189c 013d
000002a0: acf2 febc 22fa 67bc ebc4 193d 2c73 28bd
000002b0: 489f 513c e717 23bc 1ed8 48bd e476 21bc
000002c0: 1bdc e7bc de13 b9bc bced f03c cb78 a9bc
000002d0: 67bf 25bb 68e5 55bc 8eaf c13c f7db 853c
000002e0: 4dea 763c ba23 9b3b 1d36 303c e589 903c
000002f0: cf72 58bc 52a5 683a 8637 c1bb b905 14bb
00000300: c55c 51bd 47c7 533a dbe5 ebbc 811f c439
00000310: f9d7 89bc 7813 52b9 8fd0 e43b bdc5 35bc
00000320: 1b3f aa3b dafa da3c 8c12 21bd 8599 39bd
00000330: 9e94 b9bc 3ec5 053c bd54 c2bb 9004 a93c
00000340: 922c 1abc 0569 81bc 17ce febb 6bf1 aeba
00000350: 1b84 a6ba f0eb c9bc 252c 9239 406d 4a3c
00000360: e95d 66bc 9a77 0fbc b5c3 c53c 7136 46bd
00000370: 2c3f d3bc 9744 303c 0dd7 293c 9737 ad3b
00000380: 9b83 70bd 8163 873c 58c2 5eb9 03a4 203b
00000390: 8cc4 14bb bd1a 5c3c 3867 833c 00a8 d33c
000003a0: e125 2d3b a382 e63c c990 c53b f400 5dbd
000003b0: c217 72bc 9b51 13bd de65 60bc 5d33 543b
000003c0: 912d d33c c553 893c d930 f0bc 94a6 9eba
000003d0: a248 b33c 5769 92bc ac21 bd3c 23c7 48bd
000003e0: b451 01bc 1b47 273a cef8 b9bb 9a44 8a3c
000003f0: 0dc1 0f3d fb95 0abd 6861 76bc 3ec3 90bb
0.00013068272 0.019191565 -0.028439414 -0.02539501 -0.013105656 0.009784788 -0.00030124502 0.028182307
-0.0027165588 0.00966412 -0.010200235 -0.0064957086 -0.04164658 -0.030754521 -0.020646954 -0.00417404
0.014244554 0.02140939 -0.023358598 -0.014870231 0.013124976 0.029496945 -0.0068187644 0.026609829
-0.005254445 0.004100097 0.032108784 -0.032102782 -0.021664858 -0.008482647 -0.013262774 0.03066223
-0.01675683 -0.008295804 -0.017164536 -0.02757283 -0.01843692 0.034019787 0.012956699 -0.0034537977
-0.015443278 -0.02347099 0.008482818 -0.035683565 -0.013571349 -0.017633792 0.009405957 0.017982012
-0.00513247 -0.0044467845 0.028266244 0.04827192 0.014296709 0.0051273634 0.023891002 -0.020244958
0.006923125 -0.026766011 -0.031274665 -0.024195524 0.019676143 0.012953183 -0.02536104 0.00852001
0.010770539 -0.014002521 -0.00759409 -0.028263511 0.0025195025 0.053102672 0.005711293 0.026275627
0.038525768 0.024828682 0.029299416 0.014227693 0.008638347 -0.025134653 0.013631375 -0.0008696481
-0.028197274 0.016544325 0.027030881 -0.034559537 0.0069522513 -0.0055111866 -0.021990018 -0.015442616
0.022410445 -0.0053192684 0.037876874 0.03305148 0.06055361 0.037737597 -0.033684842 -0.03821138
0.027492072 0.063178495 0.00082608114 -0.014176198 0.06560806 0.0280031 -0.024088945 -0.01900741
-0.0060320273 0.036563195 0.015217041 0.01228122 -0.0143114505 -0.0073783803 -0.0049044252 0.021173501
-0.020928456 0.019648248 0.007635216 -0.02358826 0.002730902 0.020300237 0.041422624 0.03355692
0.030412648 0.0039221486 -0.02443322 0.0068893246 -0.028359348 -0.011993374 -0.014274785 -0.030206963
-0.011611606 -0.01555625 0.011262234 0.002879335 -0.017498523 -0.0030287674 0.048663553 -0.026826572
-0.030139176 -0.023947788 0.008384926 0.017118245 0.03360057 0.022656742 0.03428143 -0.009736969
-0.045010805 -0.015278276 0.028564107 -0.017712664 -0.05435962 -0.058579247 -0.04402305 -0.034547262
-0.013138198 0.0068042194 0.00021963929 -0.03269544 0.009461603 -0.0401246 0.00025546158 0.0024750682
-0.0024429322 -0.0162053 -0.03763232 -0.031493332 -0.02425511 0.0007508834 0.008457523 0.031643003
-0.031121574 -0.014158757 0.03754131 -0.04112546 0.012794323 -0.009954429 -0.04903423 -0.009855006
-0.028303197 -0.022592481 0.029410236 -0.020687481 -0.0025291087 -0.013055183 0.023643281 0.016340239
0.01507051 0.0047344835 0.010755089 0.017643878 -0.013210966 0.00088747323 -0.0058965115 -0.0022586419
-0.051113863 0.0008078706 -0.028796127 0.00037407505 -0.016826617 -0.00020034413 0.00698287 -0.011094508
0.005195511 0.026730943 -0.03932433 -0.045312423 -0.022653874 0.008164702 -0.0059305117 0.020632058
-0.00941004 -0.015797148 -0.0077760327 -0.0013347095 -0.0012704165 -0.024648637 0.0002788018 0.012355149
-0.014060476 -0.008756543 0.024141172 -0.048391763 -0.025786959 0.010758541 0.0103662135 0.005286168
-0.05871926 0.01652694 -0.00021243969 0.002451182 -0.002270016 0.013434109 0.01604043 0.025836945
0.0026420283 0.028138464 0.0060292226 -0.053955987 -0.014776172 -0.035966497 -0.013696162 0.0032379248
0.025778564 0.016763577 -0.029320167 -0.0012104088 0.02188522 -0.017872496 0.023087345 -0.049018037
-0.007893015 0.000638114 -0.005675412 0.016878415 0.035096217 -0.03383444 -0.015037872 -0.004417806

bias f4 [256]
00000000: 5da1 40bc 40cb 513c 266e 4cbb afbb c9bc
00000010: 4fe2 85bc 3bd4 833c cd01 ad3b 2490 e43b
00000020: c5f5 9fbc 3be3 5f3b 5343 e1b9 b931 0a3d
00000030: bfc1 a33c c522 00bd e414 dc3c 056a 05bd
00000040: 5b7b 8e3c c83e 1d3b 4d43 963c b088 fcbc
00000050: 12bb 31bc b816 5dbc a30d b6bc 37c3 a0bb
00000060: 6cbc 483c 6188 51bb 2af6 85bb da84 e93c
00000070: 6b16 ce3b dd49 8b3c 4327 a2bc 1316 d63c
00000080: 1905 7e3b 2862 c4bc f55c ce3c 8b04 5e3b
00000090: 686a 983b 34c7 d63c 0275 ad3c 9baf 9abb
000000a0: 374b 2bbc 86a9 f63c b3a3 e7bc 6d90 b7bc
000000b0: 736a f0bc 576f 9f3c b4a4 093c 4b37 c0bc
000000c0: 4a88 a1bc 3fa0 f2bc ee6f 95bc dbd1 ef3b
000000d0: 51fc ae3b 057a 153c cac8 953c a9e1 b1bc
000000e0: 2c98 913c 48b8 503b 6147 ffbc ee36 61bb
000000f0: 9dbf ff3c 7e20 f93a 22c2 04bd c8cc 80bc
00000100: 676b 86bc b668 9ebc 7928 d6ba a76b ea3c
00000110: 4cb4 e1bc 4401 9b3c 0b07 bb3c efc8 f83c
00000120: 3b42 bfbc 5242 7a3c 579b b03c 4f44 75bc
00000130: 582c fdbc 64af 883c 6e8b 7b3c 9ce0 ebbc
00000140: 3b4f ce3c 5476 093c e769 0d3c 7f7f 8bbc
00000150: 7115 0bbd 79b5 833c bb46 0ebd e27f 753c
00000160: f2d2 ffbc 5f83 08bc ad9e 13bc e1b5 8ebc
00000170: 30c9 363c eb16 9b3c ff79 f3bc 2376 3cbc
00000180: 1c97 c73c 8824 a0bc cd80 e2bc 07cc e73c
00000190: b005 cd3c 3a96 01bd 0986 453c 7e7e b7bc
000001a0: 4b23 b33c 346f c23c 6585 023c ce42 09bd
000001b0: ef2f 033c 775a a83c 7897 243c 6ac5 cfbc
000001c0: 90af f4bc ebfe acbc 49b6 d8bc e214 8c3c
000001d0: 05e4 c2bc 6a98 98bc 7d74 3b3c 0010 97bc
000001e0: 7d78 f63b a587 d63c cb8c a7bc cb84 0dbd
000001f0: 2fd4 d2bb 5866 efbc 83b8 60bc a5ca df3c
00000200: 2b5a 15bc d17e 50bc 18bb c23b 5266 033d
00000210: 9c55 90bc 0c3f b4bc e4a0 67bc 4378 0d3c
00000220: cecc 1d3c d8ca 073d 14f6 0f3c 1896 2f3b
00000230: 2c84 01bd ad54 b23c 10b5 d53b cb2d 433c
00000240: 50ee 42bc d161 0ebd 299e 0d3d b0f6 00bc
00000250: 416e fcbb d1ca a8bc c8a0 f4bc 4c31 9abc
00000260: 0871 dfbc 1002 233c be89 273b 1e3f ed3b
00000270: 69fd 523c c222 f5bc e25f ef3b 8be3 cebc
00000280: f7d4 a3bc cbd0 e9bc b44b 06bd bf5c 9c3c
00000290: 8830 a4bc 5c65 0abd 32d9 4d3c 1e32 093d
000002a0: 7a76 673b bda6 e13b 7f7f b6bc 8b1d a43c
000002b0: 7c52 333c 5548 783c bc69 07bd 312e 10bd
000002c0: 60ea 763c 0247 05bc 8067 fabc bbdd 673b
000002d0: e7c5 c43c 3cb7 1dbc 4f92 233b 3a2a adbb
000002e0: 0236 d13b 52af f4bb 5212 823c d26c 3bba
000002f0: 8066 efbc 3df3 dcbc b020 0cbc 35f0 8cbc
00000300: 0e4e a4bc ddce 853c d6d8 d63c 35cd 973b
00000310: f604 1bbc 3a69 ddbb c0a9 0bbd e50e eabc
00000320: 367d 01bc a601 b13c 3921 493a 41c7 feba
00000330: f7cb ae3c 9fb2 763c 8154 803c cede a3ba
00000340: 94bf d23a 8131 01bd 72ea 66bc 992e dfbc
00000350: 0de4 d5bb 3849 843c 5487 ad3c a960 cdbc
00000360: 8e51 f3bc d872 dd3c a1da ce3c 47be e43c
00000370: 686a 803a 33f8 f33c a01f fdbc 7c0e 273c
00000380: b483 b8bc 8ab0 433c 97c8 053d 8cac cdbc
00000390: e8f8 f4bb 2808 60bc 13f9 9e3c d103 b83c
000003a0: bb84 153a 5f94 903c 4b3c 8c3c bf2a 9fbc
000003b0: 18ca fcbb ce3e 9e3c ba97 b53c abc6 91bc
000003c0: 14c0 813b a492 d4bc 228d 48bb db9e 7c3c
000003d0: 79ab cbbb 73d5 eebc c598 c73a fdc8 8bbc
000003e0: 99ee ae3b 0f59 c73c 6609 773c a7f0 02bd
000003f0: 76bc d8bc 8034 193b 5ce7 1ebc 3329 5a3c
-0.011757222 0.012804806 -0.0031193583 -0.024625627 -0.016343264 0.01609241 0.0052797557 0.0069751907
-0.019526372 0.003416254 -0.00042965505 0.033738825 0.019989846 -0.03128316 0.02686543 -0.03257181
0.017392805 0.002399372 0.018342638 -0.030826896 -0.010847824 -0.013494186 -0.0222233 -0.004906084
0.0122519545 -0.0031972157 -0.004088183 0.028505731 0.0062892935 0.017002994 -0.019794112 0.026133573
0.0038760363 -0.023972586 0.02519081 0.003387722 0.0046513565 0.026218034 0.021173958 -0.004720641
-0.010454944 0.030110132 -0.0282763 -0.022407735 -0.029347634 0.01946227 0.008401085 -0.023463866
-0.019718308 -0.029617427 -0.018241849 0.007318718 0.005340137 0.00912333 0.01828422 -0.021714048
0.017772757 0.0031848121 -0.031161966 -0.0034365016 0.031219298 0.0019006876 -0.032411702 -0.015722647
-0.016408635 -0.01933704 -0.0016338966 0.028615786 -0.027551793 0.018921502 0.022830507 0.03036925
-0.02334701 0.015274601 0.021558447 -0.014969899 -0.030904934 0.016685195 0.015353067 -0.028793626
0.025184264 0.008390028 0.008631206 -0.017028568 -0.033955995 0.016077744 -0.034735423 0.014984103
-0.031228516 -0.008332103 -0.009009999 -0.017420711 0.011156365 0.018931827 -0.029721258 -0.011502775
0.024364047 -0.01954867 -0.027649308 0.02829553 0.025027126 -0.031637408 0.012055882 -0.022399183
0.021867415 0.023734666 0.007966374 -0.033510976 0.008007034 0.02055095 0.010045879 -0.025362689
-0.029868871 -0.021117648 -0.026454108 0.017099801 -0.023790369 -0.018627364 0.011441347 -0.018440247
0.0075216875 0.026187727 -0.020452878 -0.03455047 -0.0064339857 -0.029223606 -0.013715866 0.027318308
-0.009115736 -0.012725548 0.0059427135 0.032080002 -0.017618947 -0.02200272 -0.01413748 0.00863463
0.009631349 0.03315243 0.008786697 0.0026792344 -0.03162019 0.021768892 0.0065218285 0.011912773
-0.011897638 -0.034761254 0.03457466 -0.007871315 -0.007703573 -0.020604523 -0.029861823 -0.018822335
-0.027275577 0.009949222 0.0025564278 0.00724019 0.0128778005 -0.0299238 0.0073051313 -0.025254985
-0.01999901 -0.028541943 -0.03278704 0.019087194 -0.020042673 -0.03378807 0.01256399 0.03349506
0.003531842 0.006886332 -0.022277592 0.020033618 0.010944959 0.015153964 -0.03305982 -0.0352003
0.015070528 -0.008134605 -0.03056693 0.0035379964 0.024020148 -0.009626206 0.0024959033 -0.005284575
0.006384612 -0.007467189 0.015877876 -0.00071496994 -0.02922368 -0.026971454 -0.008552715 -0.017204383
-0.02005675 0.016333992 0.026226442 0.004632617 -0.009461632 -0.0067569287 -0.034097433 -0.028571555
-0.007903388 0.021607231 0.0007672492 -0.0019438044 0.021337492 0.015057235 0.015665295 -0.0012502314
0.0016078823 -0.03154135 -0.014093982 -0.0272439 -0.00652743 0.016148195 0.021182694 -0.025070505
-0.029701974 0.0270323 0.025250735 0.027922763 0.0009797337 0.029781437 -0.030898869 0.010196324
-0.022523738 0.011943946 0.032662 -0.02510669 -0.007475961 -0.01367382 0.019405877 0.022462757
0.00057036773 0.017648874 0.017118594 -0.019429563 -0.007714521 0.019317057 0.022167075 -0.017794928
0.003959665 -0.02594883 -0.00306017 0.0154187335 -0.0062155095 -0.029154515 0.0015228024 -0.017063612
0.0053385017 0.024334459 0.015077924 -0.031967785 -0.026457053 0.002337724 -0.009698715 0.013315487

weight f4 [256]
00000000: fa3e 763f 7b80 783f 36e0 743f 3c37 743f
00000010: 5130 7f3f d9a7 7a3f 755a 703f d20b 7f3f
00000020: 424a 743f 0699 7c3f a1ca 7a3f b9fa 723f
00000030: 4b05 743f 7ffd 7d3f 2256 7b3f b9b7 773f
00000040: 9dd2 793f 32a7 733f 2e7b 783f 48c0 753f
00000050: b27a 803f 93a6 7c3f 8b6e 7c3f 0632 803f
00000060: 27e5 773f afcd 7b3f ce64 7f3f f61b 7d3f
00000070: 1c61 773f 8da1 793f 44b8 7c3f b92e 713f
00000080: fedc 743f 21a8 783f 277f 783f 7e30 773f
00000090: 3eea 783f 83d3 7b3f 4bd1 783f d789 7a3f
000000a0: 429b 763f b371 763f 3474 743f 2d97 733f
000000b0: 9b7a 7b3f d337 773f b48e 733f 6bc0 783f
000000c0: d52d 783f 1a34 7e3f acc5 7b3f adf7 733f
000000d0: 7e30 7d3f 0ff9 7e3f 5a4a 7a3f aec5 7f3f
000000e0: dccd 7c3f 8fb3 823f b197 763f d01f 743f
000000f0: 96ac 813f 08a0 7d3f 274d 7e3f 6738 7e3f
00000100: f411 723f 218e 763f f98f 7f3f d7b8 763f
00000110: 8602 7c3f c7a2 793f 1f6f 803f 6b1b 7a3f
00000120: 7283 7b3f 89ac 763f 2ac7 7c3f 4a29 803f
00000130: bde1 723f 3336 7a3f b911 753f e9d0 763f
00000140: 735b 7c3f 1ad1 793f 110d 7f3f a073 743f
00000150: afc4 7f3f 6b05 753f 7cca 7b3f f09c 803f
00000160: 14d9 7d3f 2e3f 753f d1ce 7c3f 15d7 763f
00000170: 000c 803f 74fa 753f 61ba 7a3f b45d 7b3f
00000180: d443 7c3f 905d 783f aa8a 7a3f b3cf 733f
00000190: 33b3 763f 038e 733f 638e 7f3f 2be2 803f
000001a0: 32cc 7b3f 491b 813f e26e 763f 6dc4 7c3f
000001b0: 4fdd 803f f1fc 7c3f abf5 703f f283 733f
000001c0: 46bd 783f e83b 703f d774 773f 8f2a 813f
000001d0: 437d 773f 5bae 7f3f d062 7d3f 7334 7e3f
000001e0: 4e04 773f d486 793f 6e3b 7f3f 5e10 7c3f
000001f0: 3e73 7a3f 094a 753f a137 763f 64e7 803f
00000200: dfc3 783f a3b5 813f 3626 7f3f a51b 763f
00000210: 2f8e 773f f31e 733f e394 783f 4a4a 783f
00000220: 5b49 7a3f 712b 783f 5f28 7c3f c48e 7b3f
00000230: f529 7f3f 6dfa 783f 3707 7d3f 1301 823f
00000240: 466a 7b3f 55d2 733f 681b 7a3f ddfc 7d3f
00000250: 33b9 803f 95cc 783f f99d 7a3f 05a2 783f
00000260: ac6c 743f 5e49 7c3f 3452 763f d054 763f
00000270: 9858 773f 9b74 733f 60cd 7c3f 1315 803f
00000280: 6fdb 783f 267e 7c3f 060a 743f b925 813f
00000290: 9905 753f 2a38 7c3f f607 773f 3eeb 803f
000002a0: 9df9 7d3f 6a5d 733f 30b2 7d3f 220e 813f
000002b0: c202 7c3f 7f09 743f 2269 783f aaea 6a3f
000002c0: 57c1 773f e422 803f 951f 763f 0d02 7c3f
000002d0: 9560 7a3f d13a 823f 7baa 7a3f 5778 7c3f
000002e0: 7487 7a3f 54cb 773f 0237 813f f40b 7e3f
000002f0: d272 7c3f 8a6a 7b3f 9199 803f db5e 763f
00000300: dd33 7c3f 04d2 7a3f 8068 803f 96b8 7b3f
00000310: 4a8f 713f 143d 803f 5c36 7f3f 6ac1 7e3f
00000320: 3d36 823f 64a3 7d3f 5437 783f 3142 813f
00000330: 738e 7e3f 8aa1 773f 94e7 793f d077 7c3f
00000340: c31b 7a3f 0cda 783f 7023 813f a7b1 803f
00000350: 5817 7e3f 11b7 783f 31b6 733f 5730 7a3f
00000360: 994b 7a3f 4211 7b3f edbc 783f 9f3b 7f3f
00000370: 59c3 7b3f c187 753f e3f5 783f f4a7 7d3f
00000380: 2834 743f 085f 823f f8b6 7d3f e1cc 7c3f
00000390: bacd 803f e643 793f 03c9 773f 7423 7b3f
000003a0: f9c6 753f 10aa 743f 969f 7e3f 8cde 7d3f
000003b0: 5126 803f 899f 7d3f 05f8 793f 1f44 7e3f
000003c0: ed87 7e3f 60f9 713f b74b 7e3f 6eee 773f
000003d0: aaf8 7a3f 3741 7b3f cf9e 7a3f 1f18 773f
000003e0: 15f1 713f 2568 763f ccec 7b3f 4d35 783f
000003f0: cada 733f 36ad 713f f6c4 793f 4e90 7a3f
0.96189845 0.97071046 0.9565462 0.9539678 0.996831 0.97912365 0.93888026 0.9962741
0.9542581 0.98670995 0.9796544 0.9491382 0.95320576 0.9921493 0.98178303 0.96764714
0.97586995 0.95176995 0.9706296 0.9599652 1.0037444 0.9869167 0.98606175 1.0015266
0.96834034 0.98360723 0.9976319 0.9887079 0.9663255 0.9751213 0.9871867 0.9421192
0.9564971 0.97131544 0.9706902 0.9655837 0.97232425 0.98369616 0.97194356 0.97866577
0.96330655 0.9626724 0.9548981 0.9515255 0.98233956 0.96569556 0.9513962 0.97168607
0.96944934 0.9929825 0.983485 0.952998 0.9890212 0.99598783 0.977697 0.9991101
0.98751616 1.0211047 0.9632521 0.9536104 1.0130794 0.99072313 0.99336475 0.99304813
0.94558644 0.9631062 0.9982906 0.96375793 0.9844135 0.97514004 1.0033911 0.97698087
0.98247445 0.9635702 0.987414 1.00126 0.948757 0.9773895 0.9573017 0.9641252
0.9857704 0.9758469 0.9962931 0.9548893 0.9990949 0.9571139 0.9835584 1.0047894
0.9915936 0.9579953 0.98753077 0.9642194 1.0003662 0.96085286 0.9794064 0.98189855
0.98541 0.97017765 0.97867835 0.952388 0.96367186 0.9513857 0.9982664 1.0069021
0.9835845 1.0086452 0.96262944 0.9873722 1.0067538 0.9882346 0.9412486 0.9512321
0.9716381 0.9384141 0.9666266 1.0091113 0.9667551 0.9987542 0.989789 0.9929878
0.96490943 0.97471356 0.9970006 0.98462474 0.97832096 0.95816094 0.9617863 1.0070615
0.97173876 1.0133556 0.9966768 0.9613593 0.9670133 0.949691 0.97102183 0.96988356
0.9776818 0.96941286 0.984991 0.9826472 0.99673396 0.9725712 0.98839134 1.0156578
0.98209035 0.95242816 0.9769807 0.99213964 1.0056518 0.9718717 0.978973 0.9712222
0.9547832 0.9854945 0.9621918 0.96223164 0.9661956 0.950998 0.9875088 1.0006431
0.9720983 0.9862999 0.95327795 1.0089637 0.95711666 0.985232 0.9649652 1.007179
0.99209005 0.95064414 0.9910002 1.0082438 0.9844171 0.9532699 0.9703542 0.9176432
0.9677939 1.0010648 0.9614194 0.9844063 0.9780362 1.0174199 0.9791638 0.98621124
0.97862935 0.9679463 1.0094912 0.9923699 0.986127 0.9820944 1.0046865 0.9623849
0.9851664 0.9797671 1.0031891 0.9832853 0.94359267 1.001864 0.9969232 0.99513876
1.0172802 0.9907744 0.96959424 1.0098325 0.9943611 0.96730864 0.97618985 0.9862032
0.9769861 0.97207713 1.008894 1.0054215 0.9925437 0.9715434 0.9519988 0.9773001
0.977716 0.9807321 0.9716328 0.9970035 0.9834495 0.9591027 0.97250193 0.990844
0.95392084 1.0185251 0.99107313 0.9875012 1.0062783 0.9736923 0.96791095 0.9810097
0.96006733 0.95571995 0.9946226 0.99167705 1.0011693 0.99071556 0.9764407 0.99322695
0.99426156 0.9452114 0.9933428 0.9684819 0.9803568 0.98146385 0.9789857 0.9652118
0.94508487 0.9625266 0.984082 0.9695633 0.9525572 0.94404924 0.97566164 0.9787644

bias f4 [256]
00000000: 5cab e2bc 2238 34bd e1e8 52bd 266b 20bd
00000010: f625 26bd a345 b4bc 6780 b0bd 2014 a3bc
00000020: d4fb 23bd d3db 47bc caa2 21bc 1d89 93bd
00000030: c95c 8cbd 88c4 88bd 6fa3 90bd 7177 3dbd
00000040: 997a 71bd 4609 a4bd 29da 6abd 0221 37bd
00000050: 33a0 2fbd 1e1e a6bd 53a1 65bd 37b4 2cbc
00000060: 5465 35bd ba3d 0ebd 25e3 8ebd ac11 00bd
00000070: ea40 59bd ac60 4cbd 31f0 08bd 2919 d4bc
00000080: 8940 8bbc b015 35bd 2b9a 23bd 698a 76bc
00000090: 6391 3dbd 8683 bcbb a9be 3ebd d3b1 afbd
000000a0: 291f 67bd 8813 1fbd e969 98bc 1c7c 2abd
000000b0: cffb 81bc f823 1cbd 4e56 5cbd 5ce6 a7bd
000000c0: ebf4 a0bd 3a0e 10bd dd22 2abd afb5 4dbd
000000d0: bc96 28bd 763f 34bd fa1e 7fbd 6606 dbbc
000000e0: 9ccc acbc d78d 0bbd c74f 3dbd 640f 69bd
000000f0: 1567 86bd 5963 9cbc 1088 aebd c154 02bd
00000100: a72d 99bd 5879 34bd 2379 90bd 2117 70bd
00000110: a96e 81bc a5f4 79bd 7b8f 61bd b535 1dbd
00000120: 10fd 4bbd 8dbc c1bd 190d 8cbd a18d 1fbd
00000130: 311a 37bd d982 1cbd 9453 debc f62f 7cbd
00000140: 12b4 b1bd 9695 97bd 6faa 6fbc 3f33 f6bc
00000150: 24bb 8abd c5cf 64bd efc0 16bd 4df7 75bd
00000160: 5335 73bd 6f35 73bd fc70 2ebd 5684 47bd
00000170: 34c9 13bd 22df 60bc e89f 88bd e6da 88bd
00000180: 7092 5ebd e591 40bd c073 a0bd 6d34 53bd
00000190: 8eab 8bbd a75b 1bbd fff4 f1bc 4f0f ffbc
000001a0: a3f2 d4bd 6713 17bd 6b86 6cbd 151a 72bd
000001b0: 4ff4 a0bc 83e7 95bd 898b a0bd 5cc7 bcbc
000001c0: 1696 8fbd fa45 99bd 5647 6dbd 699b 333c
000001d0: 45c8 25bd f810 38bd 7547 05bc b0a8 2ebd
000001e0: 1d2c 88bc 7833 88bc dcb6 1dbd 53a5 9cbd
000001f0: 658e c2bc 4889 62bd eb37 94bd 50fd 62bd
00000200: 6270 b6bd 3e7f 8abd 186d adbc 5175 5dbd
00000210: a472 79bd 099e 5abd 217b 84bd f45a 41bd
00000220: 00a3 9cbd 91a6 00bd 3aeb 0fbd b775 43bd
00000230: e173 49bd 7532 86bd 48a9 d1ba 881f 38bd
00000240: d32a 66bd 79cc 35bd 7c83 9fbc a42c aabd
00000250: 371e 0ebc bb48 8cbc aa6b a5bc acf4 f0bc
00000260: d308 a3bd ec07 44bd b6bb 8cbd 3c86 8fbd
00000270: e269 96bd dca5 9bbd a658 babb 457b 83bd
00000280: 839f 05bd 21a3 febc 879c 89bd aacd 09bd
00000290: 6326 5abd f797 58bd ec49 c7bc ab2d e0bb
000002a0: 7d76 a1bc 4fb0 59bd a6c3 2fbd 32da c5bd
000002b0: 554e 77bd 4ea1 3bbd 5cb2 8dbd 939a b2bd
000002c0: 8a05 d0bd 898a 0abd 7a77 c5bc b206 4fbd
000002d0: 190f 49bd 12ee 8ebd f09e 39bd 0f86 48bd
000002e0: 2495 2fbd 99c6 6dbd 788d 30bd 5b7f 0cbd
000002f0: 74e2 c3bd e943 02bd 5c81 cdbd 5b04 fabc
00000300: f6a7 10bc dc19 72bd 842e 7ebb 38da 38bd
00000310: bf91 20bd 60be bcbc 6142 58bc 5bff a6bd
00000320: 8615 a63a 511c 95bd f296 14bd becb 0cbd
00000330: bbf7 50bd 3c59 cdbc d4b1 4fbb 7873 3fbd
00000340: 817e 15bd fe7c 97bd 8f46 40bc 2f84 46bd
00000350: 3f76 68bd 7361 1c3a 83aa 89bd f246 86bd
00000360: 2f8b 8bbd 64b9 58bc 6fec 48bd c22e 8fbd
00000370: 6979 94bd dbf9 64bd 3515 18bd 3384 7dbd
00000380: 8115 13bd 3757 8dbd a1ff 9cbd 0bd6 92bd
00000390: 4b95 42bd 4d11 f4bc 8c04 eebc 479b ccbd
000003a0: de95 f6bc 052f 7ebc fd9d 6fbc b61f 13bd
000003b0: 5310 89bd 18c1 bebd ca8e 7bbd f256 0bbd
000003c0: 172a 86bd beac 1fbd 1ee3 59bc 5f79 a0bd
000003d0: 94c7 4ebd d234 b7bc 4200 a8bd cf31 63bd
000003e0: 663a 8abd 8c5a bfbd bd2e c6bc 2ae3 ecbc
000003f0: ef46 2bbd 5215 2abd 7958 3cbd 0472 30bd
-0.027669601 -0.043998845 -0.051491622 -0.039164685 -0.040563546 -0.022005862 -0.08618241 -0.019907057
-0.040035084 -0.012198406 -0.009865472 -0.07203887 -0.06853635 -0.0667811 -0.070624225 -0.046256486
-0.05895481 -0.08009581 -0.05733696 -0.044709213 -0.042877387 -0.08111213 -0.056062054 -0.010541013
-0.044286087 -0.034726836 -0.06976918 -0.031266853 -0.053040422 -0.04989688 -0.03343219 -0.025890904
-0.016998546 -0.044210136 -0.039941948 -0.015047648 -0.04628123 -0.0057529835 -0.046568546 -0.08578839
-0.0564262 -0.038836986 -0.01860519 -0.041622266 -0.015867142 -0.03812024 -0.053793244 -0.081982344
-0.078592144 -0.035169818 -0.041537154 -0.050222095 -0.041159377 -0.044005834 -0.0622854 -0.02673645
-0.02109366 -0.034070816 -0.04621866 -0.056899443 -0.0656263 -0.019090341 -0.085220456 -0.03181911
-0.074794106 -0.044061035 -0.07054355 -0.058615807 -0.015799837 -0.061024327 -0.055068474 -0.038381297
-0.049801886 -0.09459791 -0.06838436 -0.038953427 -0.044702712 -0.038210724 -0.027139463 -0.061569177
-0.08676924 -0.07401578 -0.014628037 -0.030053733 -0.067739755 -0.055862207 -0.03680509 -0.060050298
-0.059377026 -0.05937713 -0.04258822 -0.04871019 -0.036080554 -0.013725074 -0.06671125 -0.066823766
-0.054338872 -0.047014136 -0.078345776 -0.05156367 -0.06819831 -0.037929203 -0.029535769 -0.03113523
-0.10397842 -0.036883738 -0.05774538 -0.059106905 -0.019647745 -0.07319548 -0.07839114 -0.02304428
-0.070110485 -0.0748405 -0.05792936 0.010962346 -0.040474195 -0.044938058 -0.008134712 -0.04264134
-0.016622597 -0.016626105 -0.038504466 -0.076487206 -0.02374954 -0.055306703 -0.07237228 -0.05541736
-0.08908154 -0.06762551 -0.021170184 -0.05406696 -0.060900345 -0.05337337 -0.064687975 -0.04720588
-0.07648277 -0.03140885 -0.03513644 -0.047719683 -0.049182776 -0.06552593 -0.0015995884 -0.044951946
-0.056193184 -0.044384453 -0.019471876 -0.08309296 -0.008674196 -0.017124524 -0.02019294 -0.029413544
-0.079606675 -0.047859117 -0.068717405 -0.07008025 -0.07344414 -0.075999945 -0.0056868372 -0.06419996
-0.032622825 -0.031083645 -0.06719308 -0.033643402 -0.053259265 -0.0528793 -0.02432724 -0.0068413815
-0.01970982 -0.053146657 -0.042911194 -0.09660758 -0.060377438 -0.04580813 -0.06918785 -0.08720889
-0.101573065 -0.033823524 -0.024104822 -0.050543495 -0.049086664 -0.06979002 -0.04531759 -0.048955973
-0.04286684 -0.058050726 -0.043103665 -0.034301143 -0.09564677 -0.031803045 -0.10034439 -0.030519655
-0.0088291075 -0.059106693 -0.003878505 -0.045129985 -0.039201494 -0.023039997 -0.01319942 -0.08154174
0.0012671209 -0.072807916 -0.036276765 -0.03437399 -0.051017504 -0.025066964 -0.0031691687 -0.04674098
-0.036497597 -0.07396887 -0.0117355725 -0.048465904 -0.056753393 0.0005965449 -0.06721976 -0.065565005
-0.068136565 -0.013227794 -0.049053606 -0.0699134 -0.0724972 -0.055902343 -0.0371296 -0.061893653
-0.03590918 -0.069014005 -0.07665945 -0.07169732 -0.047505658 -0.029793406 -0.029054902 -0.09990554
-0.03010076 -0.01551414 -0.01462507 -0.035918914 -0.06692567 -0.093141735 -0.06141547 -0.034018464
-0.06550997 -0.0389831 -0.013298778 -0.0783565 -0.0504833 -0.022364054 -0.08203174 -0.055467423
-0.0674942 -0.09343442 -0.024192208 -0.028916914 -0.041815694 -0.04152424 -0.04598281 -0.043077484

running_mean f4 [256]
00000000: aea6 26bf 24dc 753f 64d5 c03f af51 de3e
00000010: bf7e c63d ab0e ff3e a89e 653f 036a 1fbf
00000020: ca01 9c3f 1f5a f63f cc0b 34bf c0d0 babd
00000030: 28d5 1240 7070 d33e 849c c8be 6815 803f
00000040: f78a af3e 11bf 493f 8de6 153f 6c3c c73f
00000050: 5b53 db3e a729 7cbf 754a ee3f 6a87 b63e
00000060: 340c 0e3f cffd 6c40 8308 aabe fedf e0bf
00000070: 6cb6 1d40 17c1 f6be 2b88 bc3f 156c 83be
00000080: 3071 6a3e f090 6c3f 8340 07bf 61d8 02c0
00000090: 66e1 0240 9b1b 5f3f 7e15 5f3f 0f75 e43f
000000a0: 9f6b 8ebf 02eb f8bb 44ff 1f40 75d1 f83f
000000b0: 42c3 853f fdf1 a2bf 8713 993f be1c 19bf
000000c0: e606 94bf 5d94 9dbf e82f 1f3f df18 8f3f
000000d0: b7f4 a33f 3d6b a3bf 4675 3fbf 6bf7 813f
000000e0: f674 943f d7f6 de3e 8e68 10be 5265 f83f
000000f0: 5cff 4bbf 59f1 bd3d b843 1e3f 8b28 0340
00000100: 0743 eabe 8714 303e 615d 3bbf 3c21 5a3f
00000110: 68b5 29bf 896c 3e40 da67 20c0 df80 4cbe
00000120: 6c62 893f a113 813f deec e8be 3d50 efbd
00000130: 6ea4 363e bb16 d63f 9f83 413f dc6a 863f
00000140: 9b45 ce3f 633f 2e40 5b03 e0be 8535 663f
00000150: 70c9 0c3e 1919 43bf afd9 0740 89d6 c13f
00000160: 58ea 53bf 3332 e8bf e5cd 973e 3d2b 483e
00000170: 4288 103f beba 9cbf a814 ffbf 988c d2bd
00000180: bb5f fe3f 9062 ca3f 253d ff3f 1935 723f
00000190: f001 73bf e6ae 1740 f2b8 a93f 2d78 ac3f
000001a0: 2d27 5bbe 0158 7fbf 240a 79be b788 a13f
000001b0: 52fc 523f ad72 333f 1f4b 563f c3c5 373e
000001c0: dbb1 28be b6d2 95bf c911 8d3f 76ff 98bf
000001d0: 191d d23f 9eb9 fc3f 2ef3 20bf cef7 c13f
000001e0: 1b26 c0bf 7ada 2dbe fb92 ad3f 3190 4d40
000001f0: 7809 463f 20ac 8440 9560 b23f a5e4 063f
00000200: f1dd 26be 1ad8 19bf 19c2 543f 9bf2 0c3f
00000210: 6ea4 fc3f 4a19 c73f 5da1 3a3f add9 fabb
00000220: 679f aa3f 7b7e 803f 0936 f63e 750d dfbf
00000230: 453c 803d 0bbb cd3f d9d7 233f 9c83 243f
00000240: 1627 08bf cc87 cfbe a0cb 5a3f a463 373f
00000250: 2fb6 de3e d08e 5cbf 6f0e 27bf 9f6c 1540
00000260: a4dc 0a40 83b2 143f 6a07 76bf 4d36 583c
00000270: 99d5 5240 3706 bc3f 1184 583f 4ed0 f93f
00000280: 0def d8bf 209a 23c0 ade9 4f3e 7e66 2bbf
00000290: 3065 e33e 13e2 afbf 0b62 543e c03e e33e
000002a0: 503f b83e 3cff ef3f a31e 9840 4b6c c8bf
000002b0: 6845 6bbe 253c 0640 ceec 1040 0bc6 c73f
000002c0: a111 e33f 9167 e33d ab73 5f3f affd 003e
000002d0: a160 c53f f743 9fbf eeb7 70be f122 0540
000002e0: 17f9 b23f 98e8 233f 4181 51bf 2ecf 24be
000002f0: 085c 883e 16b7 c0bf 898c 58bf 27bf 86bf
00000300: 90ef 8f3f 953b d23e 706a db3f d8ea 163f
00000310: 63e1 dbb9 b0ad 0c40 4f81 b53f 2747 0fbf
00000320: f2fc 223f 4498 6fbf 2203 153e dc09 2e3f
00000330: 5810 5e40 06ec c13d cbf1 d1be b6e8 0c40
00000340: b9e1 b73f 4729 cf3f fd1f 303f 01b0 5cbf
00000350: c7bd 42be be04 a53f f07d 41bf 8a17 433f
00000360: bfdb ad3f 0647 acbf 543d 5c40 f7d0 0abf
00000370: f2f2 de3d 9aeb 5440 7ad8 fa3e 370c c13f
00000380: fb6c f7bf a9b9 2cbf 839f fbbf 5153 0fbf
00000390: a240 843f b997 1740 c748 00bf 24b1 7640
000003a0: 76ac b03f de85 3a3e ab73 1e40 1832 0abe
000003b0: 8a92 a6bf 160a 33c0 f710 3740 c413 0940
000003c0: 4a64 883e 235d 0a3f 9012 8cbe 08f8 63bf
000003d0: 81c8 89be 3f84 d7bd 6818 f33f c8d0 2040
000003e0: d639 153f 9960 b13e 512a cd3e c208 4b40
000003f0: c99b 1040 ae36 2140 7283 2940 eb3d bd3e
-0.65098083 0.9603903 1.5065122 0.43421695 0.09692144 0.49815878 0.89695215 -0.62271136
1.2188046 1.9246253 -0.703305 -0.09121847 2.29426 0.4129672 -0.39181912 1.0006533
0.3428571 0.7880717 0.5855492 1.5565314 0.42837033 -0.98501056 1.8616472 0.35650188
0.5548737 3.7029912 -0.3320962 -1.7568357 2.4642591 -0.4819419 1.4729055 -0.25668398
0.2289474 0.9240866 -0.5283281 -2.0444567 2.0450072 0.871515 0.8714217 1.7848223
-1.1126593 -0.0075963745 2.4999552 1.9438921 1.0450213 -1.2730099 1.1959084 -0.5980948
-1.1564605 -1.2310902 0.62182474 1.1179465 1.2809056 -1.2767102 -0.7478832 1.0153631
1.1598194 0.435477 -0.14102384 1.940592 -0.7968652 0.09274549 0.6182208 2.0493495
-0.45754263 0.1719533 -0.7318936 0.8520696 -0.6629243 2.9753745 -2.5063386 -0.19971035
1.0733161 1.0084115 -0.45493215 -0.11685226 0.17836162 1.6725687 0.7559146 1.0501361
1.6114992 2.7226188 -0.4375256 0.89925414 0.13748717 -0.7621017 2.1226614 1.5143596
-0.82779455 -1.814032 0.29649273 0.19547744 0.5645791 -1.2244489 -1.9928179 -0.102807224
1.9872965 1.5811329 1.9940535 0.9461227 -0.9492483 2.37005 1.3259566 1.3474175
-0.21401663 -0.9974366 -0.24320275 1.2619847 0.8241626 0.70096856 0.83708376 0.17946534
-0.16474096 -1.1704929 1.1021053 -1.195296 1.641513 1.9744146 -0.6287106 1.5153749
-1.5011629 -0.16977873 1.356048 3.2119257 0.773582 4.1460114 1.3935724 0.52692634
-0.16295601 -0.6009537 0.8310867 0.55057687 1.973768 1.5554593 0.7290247 -0.0076553435
1.3329896 1.0038599 0.480881 -1.7425982 0.062614955 1.6072706 0.6400123 0.6426332
-0.5318464 -0.40533292 0.8546696 0.71636415 0.4349837 -0.86155415 -0.652564 2.3347547
2.1697168 0.5808489 -0.9610506 0.01319654 3.294287 1.4689397 0.8457652 1.9516695
-1.6947953 -2.556282 0.20303984 -0.66953266 0.44413137 -1.3740867 0.20740525 0.44383812
0.35985804 1.8749766 4.75374 -1.5658048 -0.22975695 2.097421 2.2644534 1.5607313
1.7739755 0.11103738 0.8728587 0.12596773 1.5420114 -1.2442616 -0.23507664 2.0802577
1.3982266 0.64026785 -0.8183785 -0.16094658 0.26632714 -1.5055873 -0.8458944 -1.0527085
1.1244984 0.41061082 1.7141857 0.58952093 -0.0004193886 2.198101 1.4180087 -0.55967945
0.63667214 -0.93591714 0.14551976 0.67983794 3.4697475 0.09468846 -0.41004786 2.2017035
1.436576 1.6184472 0.6879881 -0.8620606 -0.19017707 1.2892072 -0.7558279 0.7620779
1.3582686 -1.3459175 3.4412432 -0.54225105 0.10886182 3.32688 0.48993284 1.5081853
-1.9330133 -0.67470795 -1.9658054 -0.55986506 1.0332224 2.3686354 -0.5011105 3.8545618
1.3802631 0.18215129 2.4758098 -0.13495672 -1.301347 -2.7974906 2.8604105 2.1418314
0.26639014 0.54048365 -0.27357912 -0.8905034 -0.26910785 -0.10523271 1.8991823 2.512743
0.58291376 0.3464401 0.40071347 3.1724095 2.2595084 2.5189624 2.6486478 0.36961302

running_var f4 [256]
00000000: 682f bf3e 9ac1 aa3e e49f c03e 9758 a53e
00000010: 8dff 093f e256 e83e 6746 f33e 6855 653e
00000020: 2684 b63e ecd9 8e3e f9da d23e f743 ab3e
00000030: ab07 423f e7a7 c23e e884 aa3e 3525 933e
00000040: 5bbf 063f 63b5 973e ca6b a73e 24da 973e
00000050: ca81 c03e 5dca 573e 7285 a03e e1ee d13e
00000060: 943e e03e d753 ac3e 1028 ca3e bc30 093f
00000070: 2145 6b3e 333d cf3e 0e3d a13e 6866 a33e
00000080: b784 643e e87c ce3e 2834 863e 7f00 dd3e
00000090: 25e2 003f 9ac3 ec3e a02c 943e 92f7 2f3e
000000a0: c801 a53e 37e6 8d3e 5de6 b23e 5b6e d73e
000000b0: 97d3 d53e ca20 a03e 3a8d a63e 4478 dd3e
000000c0: b978 b63e f066 a63e 553e 8e3e 9336 843e
000000d0: 2780 bc3e 2ad4 813e 64bf 913e 0f23 b13e
000000e0: c36f 853e 437a 9a3e 2732 c93e a3c3 f03e
000000f0: 1d2c c03e 3387 733e 24f2 ae3e 8423 c53e
00000100: dbfe 5c3e fe20 d43e 7160 9f3e 3ece eb3e
00000110: 8c0b af3e 4f55 db3e 1a66 d13e 66af a53e
00000120: 6fa5 df3e 1b56 7b3e b584 e33e 0651 7d3e
00000130: dc49 793e 5dda 953e bce9 923e 988d c23e
00000140: 1bce 8c3e 3095 423f b1bc 743e c8e4 c13e
00000150: 2957 b73e 9b90 713e 2506 b83e 9b55 973e
00000160: 4742 d13e 4838 033f 3da8 843e dc15 bb3e
00000170: e450 d53e d8a6 d23e 6fd8 7e3e 925d 8f3e
00000180: 7ad3 9e3e b3d4 983e d335 ca3e 42f3 cb3e
00000190: eca3 a33e ed60 b83e fe95 053f 3588 ed3e
000001a0: f0c4 b53e 0ab1 b93e 8445 a93e 2849 e03e
000001b0: fe4e 963e c2a0 a13e a5f8 b23e 09ee a03e
000001c0: a8de 813e c255 6a3e b67a f33e b68d 053f
000001d0: 9f45 913e 8592 093f 0654 9e3e 548f 8f3e
000001e0: 00f6 813e f09a 4e3e 429e 7e3e d079 0f3f
000001f0: 6330 473e 28a7 e83e ab70 c43e a788 ac3e
00000200: a825 a43e 410e 713e b97d cd3e 4485 ba3e
00000210: feab ad3e 6789 cf3e 8159 5e3e c718 863e
00000220: 91d8 fe3e 35e8 163f 4a03 863e f2e6 ac3e
00000230: 344c b03e 8b76 df3e 28db c73e 1209 ae3e
00000240: c650 ef3e 2dcc 373e 73d3 b63e 40f2 753e
00000250: aa10 993e 1c6c 8c3e 2e2e 973e 1c9b ac3e
00000260: 149e 9d3e c083 193f 39d7 5c3e c47f 8c3e
00000270: 706b 2c3e 76e3 683e cb69 d03e 5ec6 a33e
00000280: b24d a23e 38f6 ef3e b49c a93e 0f75 753e
00000290: 125d 0f3e 381f 183f d788 e43e 2609 dd3e
000002a0: 7559 103f e764 923e a44b d93e 5c8c ca3e
000002b0: 0508 293e 2c2e 0a3f 60ba 303f 8dad ac3e
000002c0: 5a0b 123f e427 c83e 6f05 ce3e a9c4 ce3e
000002d0: 0231 bd3e 45c0 833e d9ba b13e 92cf 243f
000002e0: 1f27 c23e 7a70 8a3e cc85 b23e 5c3c 8e3e
000002f0: 9c2b c13e eba2 7e3e 7e77 893e 6980 a43e
00000300: c357 a23e 59c1 143f 067b fb3e 4ef1 bf3e
00000310: 8857 083f 7901 883e db71 f83e bf30 c93e
00000320: 3bae b53e 82a9 ae3e 4549 b03e b931 073f
00000330: 3fbd fc3e abf1 c13e 3825 073f 1399 c83e
00000340: 82b8 7e3e 4965 d93e d7ac 8a3e 4a76 fd3e
00000350: b6cd 783e 3323 8c3e bb0e 813e 7fb5 963e
00000360: 576e e63e 7b26 af3e 74fb a73e 6bc3 9f3e
00000370: 7750 b93e 0106 173f 23f3 e53e d8cd d03e
00000380: f908 953e acc2 a03e 5c51 c13e a4ac 943e
00000390: bacc c43e 2390 033f eecd 0e3f c6c2 7f3e
000003a0: 6ccd 003f ade8 9c3e 693c b63e b15b cf3e
000003b0: 9c51 d93e 9867 b93e 06c5 d53e 95d5 d23e
000003c0: 23cd c13e 9359 bb3e 9a9d f93e 9d4a ec3e
000003d0: f8e3 763e 29db d03e f691 a13e aedc e73e
000003e0: c8a4 a03e 98fd f93e df46 e53e 077f ba3e
000003f0: 4914 d13e d037 ba3e 7cb7 b93e 1251 d43e
0.37340856 0.3335083 0.37621987 0.3229415 0.53905565 0.45378786 0.4751465 0.22395861
0.35647696 0.27900636 0.41182688 0.3345029 0.7579295 0.38018724 0.33304524 0.28739324
0.52635735 0.29630575 0.32699424 0.29658616 0.3759902 0.21073289 0.3135181 0.41002563
0.43797743 0.33657715 0.3948369 0.5358999 0.2297559 0.4047638 0.31491894 0.31914067
0.22316252 0.4032967 0.26211667 0.4316444 0.5034507 0.46242982 0.28940296 0.17184284
0.3222792 0.27714702 0.34941378 0.42076382 0.41762993 0.31275016 0.32529622 0.43255818
0.3563898 0.3250041 0.2778193 0.25822887 0.36816522 0.2535718 0.28466332 0.3459706
0.2606183 0.30171403 0.39296076 0.4702426 0.37533656 0.23782043 0.34169114 0.3850366
0.21581595 0.4143142 0.31128266 0.46055788 0.34188497 0.42838523 0.4089821 0.3236038
0.43680903 0.24544565 0.44437185 0.24737939 0.24344581 0.2926816 0.2869395 0.37998652
0.27500996 0.7600889 0.23900105 0.3786986 0.35808685 0.23590319 0.35942188 0.295575
0.40870878 0.51257753 0.25909606 0.36540115 0.41663277 0.41142917 0.2488725 0.28001076
0.3102072 0.29849777 0.3949419 0.39834028 0.31961 0.36011449 0.52181995 0.4639298
0.35501814 0.36267883 0.3306085 0.43805814 0.2935714 0.3156796 0.34955326 0.31431606
0.25365186 0.22884277 0.4755456 0.5216936 0.2837343 0.53739196 0.3092348 0.28039038
0.25382996 0.20176291 0.24865058 0.56045246 0.19452052 0.4544003 0.3836721 0.33698007
0.3205998 0.23540594 0.4013498 0.364298 0.33920282 0.40534517 0.2171383 0.2619078
0.49774602 0.5894807 0.26174384 0.33769947 0.34433138 0.4364513 0.3903439 0.33991295
0.46741313 0.1794898 0.35708198 0.24018192 0.29895526 0.2742623 0.2952742 0.3371209
0.30784667 0.5996666 0.21566476 0.27441227 0.16837859 0.2274302 0.40705714 0.3198728
0.31699902 0.46867537 0.33127367 0.23970436 0.14000347 0.59422636 0.4463565 0.43171042
0.563865 0.28592607 0.42440522 0.3956021 0.16506965 0.539767 0.69034386 0.3372616
0.5704857 0.39092934 0.4023852 0.40384415 0.36951452 0.25732628 0.34712866 0.6437923
0.37920472 0.27038938 0.34867704 0.27780426 0.37728584 0.24866836 0.26848978 0.3212922
0.31707582 0.58107525 0.49117297 0.37488788 0.5325856 0.26563624 0.48524365 0.39295003
0.3548449 0.341137 0.344309 0.52810246 0.49363133 0.3787969 0.52791166 0.39179286
0.24875072 0.42460087 0.2708499 0.4950431 0.24297222 0.27370605 0.2520655 0.29435346
0.45006058 0.34209046 0.3280903 0.3120378 0.36194202 0.58993536 0.4491206 0.40782046
0.29108408 0.31398523 0.37757385 0.29037964 0.38437444 0.5139181 0.55782974 0.24976644
0.5031345 0.30646268 0.35592964 0.40499642 0.42445076 0.36211848 0.4175188 0.41178575
0.3785182 0.36591777 0.48753053 0.46150675 0.241104 0.40792206 0.31556672 0.45285553
0.31375718 0.4882629 0.44780633 0.3642504 0.4083579 0.36370707 0.362728 0.41468102

weight f4 [128, 256]
00000000: 37e2 ceba 08c0 fc3b 16d0 543d b325 513c
00000010: 3524 dbbc 6607 353c eae6 33bb 7781 c63c
00000020: 2021 a43c 3a2f 20bc 65a8 9c3c 3395 353d
00000030: d2c2 1e3d 3a55 853c dc59 08bd e411 37bc
00000040: c8e3 98bd 1459 0fbd 2fc2 0f3d 41bd 553c
00000050: e5ff 8ebd b5e8 d23c 13c6 43bd fb0b aa3b
00000060: 2afa ddbb 40bf b5bb af3e 413b cce3 83bd
00000070: 48d4 9cbc 6047 9cbc 80d2 bd3d 79a0 183c
00000080: f539 35bd 19fc 36bd cbad d63b fa4a 833d
00000090: e3d1 043d fd7d 35bd bbfb 473d 7801 efbc
000000a0: 15b6 c53c 6f2c 57bd b66f aebc 91db b6bc
000000b0: 5d2d d0b9 3239 e63c 3f7a 6c3d c603 1dbd
000000c0: 8f3d 6ebd 345b d23c bf32 ff3c 5180 9a3c
000000d0: df58 e1bc 3763 16bc 01c9 8a3d f603 1bbd
000000e0: 9ea0 18bd 7697 b5bd 1719 0f3c 4527 f9bc
000000f0: ed76 12bd 96a0 553d dcb1 01bd ab54 80bd
00000100: 1a34 133c c071 8abc 2c41 66bd ae2a ac3b
00000110: ac9c 16bd cfc1 273d 3db0 263c 7f71 f0bb
00000120: 80b9 2abd bd2e 3ebc 97e6 a3bd 7f8f ed3c
00000130: 8035 aa3b f9ef 943d 9e15 1bbd 6398 793c
00000140: 4f56 88bb c70f 37bd 16a1 603b f94b 5f3c
00000150: 369a 3e3d 40e9 d03c 9092 523b 3a97 73bd
00000160: d810 55bd 162f 183d 0a29 05bb 1ec6 05bd
00000170: e21b 9a3c 216a 03bd 2f6d 05bd ac39 353d
00000180: 9f4c 3a3d fe1a 64bc 406c 043c c8ef 1f3c
00000190: 56b9 06bd 236e d9bb 6614 4b3c fcf2 cdbc
000001a0: 9490 e7bc 700f 36bd f8ce 8bbc 0b64 17bb
000001b0: 0568 46bd c181 8cbc 9f76 0a3d e13f 37bd
000001c0: 6294 343b 0369 6d3d 571e d7bc d5e1 06bd
000001d0: db2b 9c3c 8373 c6bc b9cd 8cbc fbba 373c
000001e0: f0b1 bf3b 67d8 c53b 9948 07bd 640a 8dbc
000001f0: 3d88 9bbc 2156 8cbc 8943 dcbc 72a3 b33a
00000200: fb4b 7fbd 285c 64bc 6f76 4e3c d852 06bd
00000210: de04 b73c 0e57 ba3b ec34 c63c f390 993d
00000220: 11de 06b8 b364 2bbb 8826 0b3d 9c6c 0bbb
00000230: dfaf ef3c 32ca b6bc c3d9 20bc 5daa 37bc
00000240: 5507 adbc ad37 ae3a 9e90 c73c 7598 a9bc
00000250: 8e32 bbbb 2d5a ac3c 2278 7cbd fc8d 023d
00000260: 485f 863c 4993 a63c 4340 86bd 35e8 3a3c
00000270: 8f36 afbc 0dd0 513d 3a40 d3bd d2cd c5bd
00000280: 0044 59bd 4101 dc3c eefb 00bd 8582 99bd
00000290: 8d6e 2e3d 7b09 1ebd 036d 073d 5758 f4bd
000002a0: cb4c cfbc bfa7 353d b5a6 923b 39f1 463c
000002b0: 2f38 27bc 33c7 84bc 5092 47bd 0057 0fbd
000002c0: 7fd9 113d 2a1f d53c 506b d23c 7514 92bb
000002d0: 102c 833c 6511 993d 458b 7e3c 1c68 5bbd
000002e0: e247 0abd 056c d43c 0159 dfbc c12a 77bd
000002f0: 3b6c cfbc 0efd 953c ee8e 31bc a6d3 39bd
00000300: 0c42 cabc e4ae 3a3b dd71 95bc 86b2 bb3a
00000310: c5b8 193c 799f 32bd 8798 afbd 0a7a 9c3b
00000320: dd25 e33b 5268 0a3c 4497 05bb 70b9 1d3c
00000330: f5b3 323d 91ba 2b3d 2450 8dbd 841a 893d
00000340: 24b3 9a3a 2677 cc3c 628b 81bc cd2f a33c
00000350: faad 16bc ca81 2abb 66f7 0ebd 6c49 51bd
00000360: f758 7d3d 97ef b6bc f089 183d c137 333d
00000370: 8f65 11bd a6b5 d43c 63ec c5bc ae8a e03c
00000380: 52f9 7e3d 140d 843c 1c3e 27bd d7a9 f5bc
00000390: 05ad b03c 797f d1bb cf6e 21bd 8fbb 843c
000003a0: d373 05bc 359b fabb 4469 903c 2c31 4e3d
000003b0: 390d ecbc 01fd 2bbd 3e83 f1bc 9dc9 f53c
000003c0: 642d c73c 4fab 5abd dd9c 4e3a 5a8e c7bb
000003d0: bf2c 8c3c 931d d7bc 4de0 dbba a41c 593c
000003e0: b6ab 3cbb 4045 84bc 0671 7ebd 2dbe c93c
000003f0: 2c12 15bc 3354 8dbd fa54 85bd 30c1 0cbd
-0.001578397 0.0077133216 0.05195626 0.012765336 -0.026750663 0.011049127 -0.0027450868 0.024231656
0.020035326 -0.009776885 0.019123266 0.04433174 0.038760014 0.01627599 -0.03328882 -0.011173699
-0.07465321 -0.03499706 0.035097297 0.01304561 -0.06982402 0.025745729 -0.04779632 0.0051894165
-0.0067742066 -0.0055464804 0.0029486825 -0.06439933 -0.019144192 -0.019077003 0.09268665 0.009315603
-0.044244725 -0.044674013 0.0065514795 0.06410785 0.032426726 -0.044309605 0.048824053 -0.029175505
0.024134675 -0.05253261 -0.021293502 -0.022321494 -0.0003970665 0.028103445 0.05773377 -0.038333677
-0.058164176 0.025678255 0.031152127 0.018860014 -0.027508197 -0.009178928 0.0677662 -0.037845574
-0.03726255 -0.088667795 0.008734009 -0.030414233 -0.035757948 0.0521551 -0.03166376 -0.06266149
0.00898459 -0.016899943 -0.056214496 0.0052541113 -0.036770508 0.040956315 0.010173854 -0.0073377485
-0.041680813 -0.011607823 -0.08002966 0.028999088 0.005194366 0.07272334 -0.037862413 0.015234086
-0.0041606794 -0.04469278 0.0034275702 0.013628953 0.046533786 0.025501847 0.0032130815 -0.059470393
-0.052018017 0.03715428 -0.002031865 -0.032659642 0.018812124 -0.032083634 -0.03257483 0.044244453
0.045483228 -0.013922451 0.008082449 0.009761758 -0.032891594 -0.006635444 0.012395 -0.025140278
-0.028267182 -0.044448316 -0.017066464 -0.0023100402 -0.048439045 -0.017151715 0.033804532 -0.044738654
0.0027554263 0.057961475 -0.026259584 -0.032930214 0.01906388 -0.024225002 -0.01718794 0.011214013
0.005850069 0.00603776 -0.03302822 -0.017216869 -0.018985862 -0.017130913 -0.026887672 0.0013705327
-0.06232832 -0.013937987 0.012601479 -0.03279385 0.022341188 0.0056866473 0.024195157 0.0749835
-3.2154905e-05 -0.002615255 0.033972293 -0.0021274453 0.029258667 -0.022313211 -0.009817543 -0.011210051
-0.02112166 0.0013291739 0.024360951 -0.02070258 -0.0057128137 0.021039093 -0.061638005 0.031873688
0.016402856 0.020333903 -0.06555226 0.0114079015 -0.02138832 0.051223803 -0.103149846 -0.09658398
-0.053043365 0.026856067 -0.03149026 -0.07495598 0.0425859 -0.03858326 0.033062946 -0.11930912
-0.025305172 0.04434943 0.0044754394 0.012142473 -0.010206266 -0.016208267 -0.04872352 -0.03499508
0.03560781 0.026015837 0.025685936 -0.004458005 0.016012222 0.07474021 0.015536134 -0.053566083
-0.03375996 0.025930414 -0.02726412 -0.060343508 -0.025320163 0.018309142 -0.0108373 -0.04536786
-0.024689697 0.002848559 -0.01824277 0.0014320172 0.009382431 -0.043609116 -0.08574014 0.0047752904
0.006932004 0.008447723 -0.002038435 0.009626731 0.04362865 0.04192597 -0.06900051 0.066945106
0.0011802656 0.024959158 -0.015813533 0.019920254 -0.009196753 -0.0026017302 -0.034903906 -0.05109541
0.06185242 -0.022331042 0.037240922 0.043754343 -0.035497244 0.025965523 -0.02416057 0.027409878
0.06224949 0.016119517 -0.040830716 -0.029988213 0.021566877 -0.0063933698 -0.039412316 0.016202716
-0.00814529 -0.0076478967 0.01762832 0.050339863 -0.028814899 -0.04198933 -0.029481526 0.030003363
0.024313636 -0.05338603 0.0007881651 -0.0060899677 0.01711118 -0.02625922 -0.0016775221 0.013251457
-0.002878887 -0.016146302 -0.062119506 0.024626816 -0.009098571 -0.06900825 -0.065103486 -0.034363925

bias f4 [128]
00000000: e6bf 71bd 3e98 333d 8729 59bd 2c7a 6b3c
00000010: 2af4 763d 9b81 fabc 8207 43bd 4a26 f6bc
00000020: 95d2 2cbd 2d6a 833c 52d5 f83c c271 613c
00000030: 84c3 a3bb b724 bfbc 0b35 263d 38aa 523d
00000040: 507d 7d3c 3ba1 19bd 0839 633d 81c6 21bc
00000050: f21c 013d 75cd 4ebc 7257 88bc e684 a9bc
00000060: 527e 6b3d f59b e1bc a8c5 45bd 8cd7 42bb
00000070: 2bd7 46bd 9c50 803d 2097 a3bc ffa6 34bd
00000080: b9a6 313d e449 06bd 9c03 8e3c 971d 0d3d
00000090: 5fd3 31bd 431b 3e3b f527 efbc 64cf 74bd
000000a0: 447b 75bd d89c 73bb f39b 003d c19b 54bd
000000b0: c57d 883c 602f f73b 9698 14bd 808d 233d
000000c0: afe7 86bc 8339 683a f96a 5bbd da7a 593c
000000d0: 807a 49bb 6cfc 553d 708f 43bd 6951 dcbb
000000e0: 9eb4 523d 272b 743c 56f5 743d a432 363d
000000f0: 43ae 053d a626 ce3c 9321 60bd 7c8d 14bd
00000100: b541 573d 2835 1abd 8629 1abd 9a32 343d
00000110: 9af6 43bd 39fe 5b3d 7ae8 0cbd dd18 553d
00000120: 3ef4 e63c e79b f23c 1546 90bc ab33 bb3c
00000130: f8ff 05bc 7ec6 2abd a46b 233d f469 22bd
00000140: 9efd 24bd 081c 983c 326f 0fbd aef7 dfbc
00000150: edc7 31bc 80dc 4fbd 9840 9f3c a28d a1bb
00000160: c9fd c5bc 86ed e13c f817 dbbc eda9 e1bc
00000170: 503d 4fbb 5043 453d 7dd2 21bd f51d c03b
00000180: 5f3f 7a3d 08b7 6d3d 9cae 3c3c cb5d 25bd
00000190: a21e 66bd 24f6 45bd a5e1 8bbc b8ff 09bd
000001a0: 3f87 6ebd 70e9 b5bc 1062 6fbd d825 a9bc
000001b0: 54e4 84bc 7443 65b9 6e62 3b3d 6dad 783b
000001c0: 5881 b8bc 4863 50bd 223c 19bd 5f27 1dbd
000001d0: 8d70 133c d17f 423c fc91 823c b664 6bbd
000001e0: 749b 6abd 9960 2fbd d919 0e3d 42da 273d
000001f0: 86c9 40bc d189 3e3d ab7d 2a3d f079 fd3c
-0.0590209 0.04384636 -0.05301812 0.01437239 0.060291447 -0.030579379 -0.047614582 -0.030047555
-0.042193014 0.01604184 0.030375157 0.013760032 -0.0049976725 -0.023332937 0.04057793 0.051431865
0.015471771 -0.037507277 0.05547431 -0.009873987 0.031521745 -0.012622227 -0.01664326 -0.020693254
0.057493515 -0.027540186 -0.048284203 -0.0029730527 -0.048545044 0.06265375 -0.019969523 -0.044104572
0.04337189 -0.03278531 0.017335705 0.034452047 -0.04341447 0.0029007948 -0.029193858 -0.059768096
-0.05993201 -0.0037172344 0.031398725 -0.05190635 0.016661534 0.0075434893 -0.03627833 0.039929867
-0.016467897 0.00088586676 -0.053568814 0.013273919 -0.0030743182 0.05224268 -0.047744215 -0.006723572
0.05144178 0.014902866 0.059804283 0.04448189 0.032636892 0.025164913 -0.05471952 -0.036267743
0.052552897 -0.03764835 -0.037637256 0.04399357 -0.0478426 0.053709242 -0.034401394 0.052025665
0.028192636 0.029615356 -0.017611543 0.022851786 -0.0081787035 -0.041693203 0.039897576 -0.039651826
-0.04028093 0.018568054 -0.035018153 -0.027339783 -0.010850889 -0.050747395 0.01943998 -0.004930214
-0.024168866 0.02757908 -0.026744828 -0.027546847 -0.0031622238 0.048159897 -0.039507378 0.005862946
0.06109559 0.05803588 0.0115162395 -0.04037265 -0.056181557 -0.04833044 -0.01707537 -0.033691138
-0.05823445 -0.022206038 -0.05844313 -0.020647928 -0.016222157 -0.0002186427 0.045748167 0.0037945167
-0.022522613 -0.050875932 -0.037410863 -0.038367625 0.008999002 0.011871294 0.015938751 -0.057469092
-0.057277158 -0.042816732 0.03469262 0.04097963 -0.011766797 0.04651815 0.041623753 0.030941933

weight f4 [128]
00000000: 0d66 a43f 6b61 ad3f bb42 a83f bebd ae3f
00000010: be45 a53f 6c9c a43f 6622 a43f 1798 a83f
00000020: d3ef a53f b525 aa3f 8bd2 a93f 3883 a83f
00000030: 744c a43f 79f4 a53f 727a ab3f 529b a53f
00000040: f0c8 a83f d711 a53f 0948 af3f c786 a33f
00000050: 18cb a53f 27b0 a43f 2c3d a53f a8dc ab3f
00000060: 811c ad3f b3bb af3f 594d a03f 6f41 a53f
00000070: cd8a ad3f 219a a33f c9e4 a93f 3c74 ae3f
00000080: d8da a93f 347a a93f 3f09 b03f da06 a73f
00000090: bfda a63f f2e0 a63f 677c a83f 813c a53f
000000a0: ef12 aa3f 6a3d a33f c15f ac3f 8cad aa3f
000000b0: 3dab ab3f 6e5d a33f 1fd2 ac3f 45cb ab3f
000000c0: 7031 ae3f 31f4 a73f d57e a53f 1e86 ad3f
000000d0: 9a04 ad3f b99f a53f 834a a33f 4d67 a93f
000000e0: 4dc8 aa3f 43eb a23f 0e7c a63f 5079 ab3f
000000f0: b3c8 a83f 6d21 a33f 4431 a73f 9c37 a63f
00000100: 83b5 a13f 1ac5 a03f 4f86 a93f eb88 a73f
00000110: dab3 a33f 298a ab3f 5c6a ab3f 08c2 a73f
00000120: fdd4 a43f 6876 b03f 61e5 a13f e101 ac3f
00000130: ac27 a63f c9af ab3f ca27 ad3f 5482 9f3f
00000140: 2275 a83f 7cf6 ab3f 34a3 ad3f 9a9f a53f
00000150: 73c0 a73f 1b8b a93f a74c ae3f 8d9d ab3f
00000160: af80 a73f d88d a53f 27b9 ac3f 42fe ac3f
00000170: 47fe a73f 4ad4 a53f e3c8 a73f 351f aa3f
00000180: b306 a73f 9212 a23f 1a43 a83f 2ce5 a23f
00000190: e9c6 ad3f b7e4 a13f 19a6 a63f 302e aa3f
000001a0: 0652 ab3f cc22 a33f 79db ac3f 9696 a73f
000001b0: aec3 a83f fe87 ad3f 2755 ad3f 9b9e a73f
000001c0: eff4 aa3f 00d8 a43f a88a a63f d5d8 a83f
000001d0: c87e aa3f 4067 a73f 5d5f a93f f450 ab3f
000001e0: ab68 a83f 38ef 9f3f 7ce9 a83f 2676 a73f
000001f0: eff9 a93f 151a a63f 05af ac3f f3ea a53f
1.2843643 1.3545355 1.3145365 1.3651655 1.2911909 1.2860236 1.2822998 1.3171414
1.2963814 1.3292757 1.3267378 1.3165045 1.2835832 1.2965232 1.3396742 1.2938025
1.3186321 1.2896069 1.3693858 1.2775506 1.2952604 1.2866257 1.2909293 1.3426714
1.3524324 1.3729156 1.2523605 1.2910594 1.3557984 1.2781411 1.3272945 1.3629222
1.3269911 1.3240418 1.3752822 1.3048966 1.3035506 1.3037398 1.3162965 1.2909089
1.3287028 1.2753117 1.3466722 1.3334212 1.3411633 1.2762887 1.3501624 1.3421408
1.3608837 1.3121396 1.2929331 1.3556554 1.3517029 1.2939368 1.2757114 1.323465
1.3342377 1.2728046 1.3006608 1.3396397 1.3186249 1.2744576 1.306191 1.2985721
1.2633518 1.2560151 1.3244113 1.3088659 1.2789261 1.3401538 1.3391833 1.3106089
1.2877499 1.3786135 1.2648126 1.3438073 1.2980857 1.341302 1.3527768 1.2461648
1.3160746 1.3434596 1.3565431 1.2939332 1.3105606 1.3245577 1.3617142 1.3407456
1.3086146 1.2933912 1.3494004 1.3515093 1.3124474 1.295541 1.3108181 1.3290774
1.304892 1.2661917 1.3145478 1.2726188 1.3576328 1.2647923 1.3019439 1.3295345
1.3384407 1.2744994 1.3504478 1.309283 1.3184717 1.3557127 1.3541611 1.3095278
1.3355998 1.2878418 1.3011065 1.3191172 1.331994 1.3078384 1.3232228 1.338408
1.3156942 1.2494879 1.3196254 1.3082931 1.3279399 1.297671 1.3490912 1.2962326
