mlp/mlp_bn.pth (torch, 947711 bytes, 6 tensors)

weight f4 [256, 784]
0	0xb99bb2db	-0.00029697162
1	0x3c96c2fa	0.018403519
2	0xbce82496	-0.028337758
3	0xbccf9a61	-0.025342168
4	0xbc599cb0	-0.013281986
5	0x3c1668c1	0.009180249
6	0xba3cf2ca	-0.0007207809
7	0x3cdefe0c	0.027220748
8	0xbb4a8ed4	-0.0030907886
9	0x3c1468c7	0.009058184
10	0xbc2ae464	-0.010430429
11	0xbbdec01d	-0.006797804
12	0xbd06d8ec	-0.032921717
13	0xbcbba97d	-0.022907967
14	0xbc68db63	-0.014212462
15	0x3aa1c166	0.0012340962
16	0x3c5e0c5b	0.01355275
17	0x3ca8aef0	0.02059123
18	0xbcbf4432	-0.023347948
19	0xbc75f42f	-0.015011831
20	0x3c4bf582	0.01244867
21	0x3ce990df	0.028511463
22	0xbbe928ac	-0.007115444
23	0x3cd270bd	0.025688523
24	0xbbb6e43e	-0.005581408
25	0x3b6bd570	0.0035985373
26	0x3cfeb514	0.031092204
27	0xbd02d62d	-0.031942535
28	0xbcb1a215	-0.021683732
29	0xbc0f4430	-0.0087442845
30	0xbc5c39e2	-0.013441535
31	0x3cf312eb	0.029672107
32	0xbcb6e2e6	-0.02232499
33	0xbc81fc38	-0.015867338
34	0xbcc517f9	-0.024059283
35	0xbd041db6	-0.032254897
36	0xbca553c7	-0.02018155
37	0x3cf166b4	0.029467918
38	0x3c7b53ca	0.015339801
39	0x3c8c011d	0.017090375
40	0x3b0f685d	0.0021882274
41	0xbc906449	-0.017625945
42	0x3bc04c19	0.0058684465
43	0xbd018c76	-0.031628095
44	0xbcc28751	-0.023746165
45	0xbc8ef222	-0.017449442
46	0x3cb09839	0.02155696
47	0x3ca45805	0.020061502
48	0xbc7b2d81	-0.015330673
49	0xbac8805c	-0.0015297043
50	0x3cb14c60	0.021642864
51	0x3d0bb8b9	0.034111712
52	0x3c5eeba4	0.013605986
53	0x3b96e739	0.0046052006
54	0x3cbc854a	0.023012776
55	0xbca62b05	-0.020284185
56	0x3bd0a5dd	0.0063674287
57	0xbcdab262	-0.026696388
58	0xbcc387a8	-0.023868397
59	0xbc91d1d0	-0.017800242
60	0x3c7e3977	0.01551663
61	0x3c61e7fe	0.013788221
62	0xbca7721c	-0.020440154
63	0x3c27d762	0.010244222
64	0x3c982a6d	0.018574918
65	0xbb99ee6b	-0.004697611
66	0x3ab44856	0.0013754468
67	0x3c0b3636	0.008496812
68	0x3cb89b67	0.02253504
69	0x3d0a78cc	0.033806607
70	0xbcd6c969	-0.026219087
71	0xbc2e90d7	-0.01065465
72	0x3c71995e	0.014746038
73	0x3ce24749	0.027621882
74	0x3ce6b14a	0.02816071
75	0x3ced9a32	0.02900419
76	0x3bd0c8a5	0.006371575
77	0xbcf7c61f	-0.030245839
78	0x3b2f3894	0.0026736604
79	0xbcb1c203	-0.021698957
80	0xbd036ac7	-0.032084253
81	0x3cf9e8c1	0.030506494
82	0x3cd5d751	0.026103647
83	0xbd0ca403	-0.0343361
84	0x3bd194f3	0.00639593
85	0xbbbf16e1	-0.005831585
86	0xbbba88a8	-0.00569256
87	0xbc81a052	-0.015823517
88	0x3c4e5dec	0.012595635
89	0xbca8ae5c	-0.020590954
90	0x3c47fa74	0.012205709
91	0x3c8b0994	0.01697234
92	0x3cc9a7dc	0.024616174
93	0x3c5bcb91	0.013415233
94	0xbd09f053	-0.033676457
95	0xbcabdba3	-0.020978754
96	0x3c9ca279	0.019120442
97	0x3c30c976	0.0107902195
98	0xbcd5b9d5	-0.026089588
99	0xbcd35d77	-0.025801403
100	0x3cd4903c	0.025947683
101	0x3c6d626f	0.0144888
102	0xbcd5ae95	-0.026084224
103	0xbc88e40e	-0.016710307
104	0xbd1ccb05	-0.038279552
105	0xbb45d1f0	-0.0030184947
106	0xbcd50b6b	-0.026006421
107	0xbcd8f4d0	-0.026483923
108	0xbb02aa1f	-0.0019937826
109	0x3ba784e3	0.005112277
110	0xbc6751c3	-0.014118615
111	0x3ca6cda5	0.02036173
112	0xbcabb9a5	-0.020962546
113	0x3cff3e31	0.031157585
114	0x3cc0bfed	0.023529017
115	0xbceea019	-0.029129075
116	0xbc0e68b5	-0.008691956
117	0x3ad19dc4	0.0015992452
118	0x3bc40d2a	0.0059830146
119	0x3c277b55	0.010222276
120	0x3c90f865	0.017696569
121	0x3bd50f9d	0.0065021054
122	0xbc24c660	-0.010057062
123	0x3cd2d2c9	0.025735276
124	0xbc84c704	-0.01620818
125	0xbaf4b4f2	-0.0018669649
126	0x3b832f79	0.004003462
127	0xbc4ab08e	-0.0123711955
128	0xbc98969d	-0.018626506
129	0xbd29d06a	-0.041458525
130	0xbc86b046	-0.016441476
131	0xb9b2a80f	-0.0003407602
132	0xbcdd6dc9	-0.027029889
133	0xbbd87814	-0.0066061113
134	0x3cd2dd45	0.025740275
135	0xbb303df3	-0.0026892393
136	0x3a6aaf78	0.00089525385
137	0xbb44bdbb	-0.0030020315
138	0x3be6b721	0.0070408736
139	0x3cb31d8b	0.021864673
140	0x3d053a4e	0.032526307
141	0x3cb28b54	0.021794952
142	0x3d058c67	0.0326046
143	0xbb4cb49d	-0.0031235584
144	0xbd0036b5	-0.031302173
145	0xbc8c9f59	-0.017165827
146	0x3cd04cf1	0.025427314
147	0xbacafc91	-0.0015486648
148	0xbc9f37f6	-0.019435864
149	0xbce3de61	-0.027816
150	0xbc939a74	-0.018017985
151	0xbc45e375	-0.012078156
152	0xbbeff150	-0.007322468
153	0x3d012bf6	0.031536065
154	0x3cf7bf66	0.030242633
155	0xbc4ae514	-0.012383718
156	0x3bf8423c	0.007576255
157	0xbd75ca8b	-0.060007613
158	0xbcd53ee1	-0.02603096
159	0xbc9cf84d	-0.019161368
160	0xbb6592c4	-0.0035030106
161	0xbc186aa9	-0.0093027735
162	0xbd04b2d6	-0.032397114
163	0xbcf5f380	-0.030023336
164	0xbbce7e7c	-0.006301699
165	0x392f2463	0.00016702856
166	0xbc813341	-0.01577151
167	0x3c5425dd	0.01294848
168	0xbcfdd548	-0.03098549
169	0xbb1b0266	-0.0023652553
170	0x3cf67517	0.03008513
171	0xbc7dbe40	-0.015487254
172	0x3ce123cc	0.02748289
173	0x3bd5e1f2	0.006527179
174	0xbd1f1a63	-0.038843524
175	0x3c2ba4bb	0.0104762865
176	0xbc99ee3f	-0.018790362
177	0xbcedfd74	-0.02905152
178	0x3cba8dfc	0.022772782
179	0xbcfe1018	-0.031013533
180	0xbbe20548	-0.006897602
181	0xbc5a0e2c	-0.013309043
182	0x3cfd1417	0.030893369
183	0x3ce72190	0.028214246
184	0x3ce1842a	0.027528841
185	0xbc81a085	-0.015823612
186	0xbd246297	-0.040133085
187	0xbd071b8d	-0.03298526
188	0xbd25ac7c	-0.040447697
189	0x3b8461d6	0.0040399833
190	0x3c6ddb63	0.014517638
191	0x3c8c696a	0.01714011
192	0xbce223ba	-0.027604926
193	0x38a69445	7.943114e-05
194	0xbcc7caaf	-0.02438864
195	0xbc9b8d41	-0.018988254
196	0xbca47066	-0.020073127
197	0x3c3c8e7b	0.011508579
198	0xbca900f1	-0.020630332
199	0xbb45b99f	-0.0030170453
200	0xbb637af5	-0.003471074
201	0x3c3572ce	0.011074735
202	0xbd49f107	-0.049302127
203	0xbd662c95	-0.05619486
204	0xbd002269	-0.031282816
205	0xbb60394d	-0.0034213841
206	0xbcfdd7a3	-0.030986613
207	0x3c7538bd	0.014967141
208	0xbb1fe4ab	-0.0024397771
209	0xbc4e7aa1	-0.012602479
210	0xbc5d5c48	-0.013510771
211	0x3c601f29	0.013679304
212	0x3cec4557	0.028841658
213	0xbc72d70b	-0.014821778
214	0xbcb7585b	-0.022380998
215	0xbcecb27d	-0.028893704
216	0xbd4b08d1	-0.049568955
217	0xbd0f4bfb	-0.03498457
218	0x3c4b5460	0.012410253
219	0xbd1dc6d9	-0.038519714
220	0xbb91e4f6	-0.004452343
221	0x3d061a32	0.032739826
222	0x3c4d42b6	0.012528112
223	0x3a75a5a0	0.00093706883
224	0xbcf36a91	-0.0297139
225	0x3c8599c8	0.01630868
226	0xbccea768	-0.02522631
227	0xbc508116	-0.012726089
228	0xbc90658f	-0.017626552
229	0xbcb64ba1	-0.02225286
230	0xbc94273d	-0.018085117
231	0x3bbe27da	0.0058030905
232	0x3c1608ee	0.009157402
233	0x3cf05c2c	0.029340826
234	0x3bd884b9	0.0066076186
235	0xbcad4b09	-0.021153944
236	0xba405e5b	-0.0007338279
237	0xbd3daa2b	-0.046304863
238	0xbcbf0527	-0.023317887
239	0x3c950d84	0.018194921
240	0x3d31bc90	0.043392718
241	0x3d3712a5	0.044695515
242	0xbc50c01e	-0.012741117
243	0xbca54aa0	-0.020177186
244	0xbc9929f0	-0.018696755
245	0xbd6ac17c	-0.057313427
246	0x3b97c492	0.0046315873
247	0xbd2fde37	-0.04293653
248	0xbb22649f	-0.0024779213
249	0xbbde060b	-0.0067756227
250	0xbc907d5b	-0.0176379
251	0x3b93e212	0.0045130337
252	0x3ce7f2b2	0.028313968
253	0xbc389358	-0.011265598
254	0xbcb2d5de	-0.021830495
255	0xbc8a81c9	-0.01690759

bias f4 [256]
0	0xbc382bf0	-0.011240944
1	0x3c55594c	0.013021778
2	0xbac432c9	-0.0014968748
3	0xbcac870a	-0.021060485
4	0xbc6f4a24	-0.014605079
5	0x3c88ab45	0.01668323
6	0x3c1b3a6d	0.009474379
7	0x3bf0917b	0.0073415614
8	0xbc75d7e4	-0.015005086
9	0x3bb93658	0.0056522302
10	0x3b1084be	0.0022051777
11	0x3d163563	0.036672007
12	0x3c8f8779	0.017520653
13	0xbd045e1b	-0.03231631
14	0x3ce09d88	0.027418867
15	0xbcdb44a6	-0.026766133
16	0x3c95825e	0.01825064
17	0x3b6d8154	0.0036240416
18	0x3c99cde7	0.01877494
19	0xbcfea7e3	-0.031085914
20	0xbc12446c	-0.008927446
21	0xbc4e2d3e	-0.012584029
22	0xbcc12961	-0.023579301
23	0xbb19ad3b	-0.00234492
24	0x3c4f686d	0.012659174
25	0xbba519bd	-0.0050384686
26	0xbb34df7a	-0.0027599023
27	0x3d0124dd	0.031529296
28	0x3c0de0f4	0.00865959
29	0x3c8899f5	0.016674975
30	0xbca02474	-0.019548632
31	0x3ce16838	0.027515516
32	0x3bd4276c	0.006474426
33	0xbcb7be8a	-0.022429723
34	0x3cddf926	0.027096342
35	0x3bfe2034	0.0077553038
36	0x3bc467b7	0.005993809
37	0x3ce29a45	0.027661452
38	0x3cd32036	0.025772195
39	0xbbc07f75	-0.005874569
40	0xbc1741ba	-0.009231979
41	0x3d06b3f2	0.032886453
42	0xbca41809	-0.020030992
43	0xbc972ba8	-0.018453434
44	0xbceb1224	-0.028695174
45	0x3cbeea06	0.02330495
46	0x3c32a62d	0.010903877
47	0xbcbf620d	-0.023362184
48	0xbc96c79c	-0.018405728
49	0xbccf94eb	-0.025339564
50	0xbc659b25	-0.01401404
51	0x3bee8d07	0.0072799954
52	0x3bc95bb5	0.0061449655
53	0x3c56af06	0.013103252
54	0x3c87bf05	0.016570577
55	0xbca85d26	-0.02055223
56	0x3ca67c3e	0.020322915
57	0x3b1f8003	0.0024337776
58	0xbcecdb50	-0.02891317
59	0xbad39f25	-0.0016145451
60	0x3cff6b1a	0.031179
61	0x3baf5be3	0.00535153
62	0xbd06f067	-0.03294411
63	0xbc5f7520	-0.013638765
64	0xbc7a2cc4	-0.015269462
65	0xbc53e035	-0.012931873
66	0xb8cb04a0	-9.680656e-05
67	0x3d01c26c	0.031679556
68	0xbcba4721	-0.022738995
69	0x3ca0771d	0.019588048
70	0x3ca8bb96	0.02059726
71	0x3d01591c	0.031579122
72	0xbcbf687f	-0.023365257
73	0x3c79548b	0.0152179105
74	0x3cd8fdf1	0.026488276
75	0xbc6d4a3f	-0.014483034
76	0xbcfa026d	-0.030518735
77	0x3ca05bab	0.01957496
78	0x3c93372e	0.017970648
79	0xbcd7ecd6	-0.02635805
80	0x3cc8efbc	0.024528377
81	0x3c23b4bf	0.009991824
82	0x3c342ab4	0.010996509
83	0xbc815f5f	-0.015792547
84	0xbd0ca82f	-0.03434008
85	0x3ca2cd18	0.019873187
86	0xbd014a23	-0.031564843
87	0x3c648bbc	0.013949331
88	0xbd013916	-0.031548582
89	0xbb7474ea	-0.0037301132
90	0xbc366c16	-0.011134168
91	0xbc62da48	-0.013845988
92	0x3c54144b	0.012944291
93	0x3cbc962c	0.023020826
94	0xbcde450a	-0.02713253
95	0xbc35bfcc	-0.011093091
96	0x3cb6d442	0.02231801
97	0xbc866cb6	-0.01640926
98	0xbcd077b6	-0.025447708
99	0x3ced26a6	0.028949093
100	0x3cd111ba	0.025521148
101	0xbcf93a76	-0.030423384
102	0x3c3fdd52	0.011710482
103	0xbca94b9d	-0.020665938
104	0x3cb244e9	0.021761375
105	0x3cb5f0cb	0.022209546
106	0x3c0a8345	0.008454149
107	0xbd00fb0d	-0.03148942
108	0x3c53e8d7	0.012933931
109	0x3ccbdd05	0.024885664
110	0x3c79a3be	0.015236793
111	0xbca4c403	-0.020112997
112	0xbcd6167b	-0.026133766
113	0xbca564d3	-0.020189678
114	0xbcce8c47	-0.025213374
115	0x3cb23293	0.021752631
116	0xbcc3abad	-0.023885572
117	0xbc9417f6	-0.018077832
118	0x3c4c09d9	0.01245352
119	0xbca2b1fe	-0.019860264
120	0x3c172de3	0.009227249
121	0x3ce7bece	0.028289225
122	0xbc8b82f6	-0.01703022
123	0xbd131d87	-0.03591683
124	0xbb90b1e2	-0.0044157365
125	0xbcd3b6b3	-0.025843954
126	0xbc66a691	-0.014077798
127	0x3ceec2a8	0.029145554
128	0xbbdcf3d9	-0.006742936
129	0xbc5d3cf3	-0.013503301
130	0x3c24a687	0.010049469
131	0x3d0e1246	0.034685396
132	0xbc8a3e2e	-0.016875353
133	0xbc9c86e5	-0.019107291
134	0xbc554a9b	-0.013018276
135	0x3c2add03	0.01042867
136	0x3c0d7a41	0.008635105
137	0x3d0c1f8c	0.034209773
138	0x3c0dc5ff	0.008653163
139	0x3bbd5ec4	0.005779119
140	0xbcee6c07	-0.029104246
141	0x3ca45709	0.020061033
142	0x3c172fc2	0.009227695
143	0x3c50c3e5	0.012742017
144	0xbc292503	-0.010323766
145	0xbcff1ab2	-0.031140659
146	0x3d14bbc1	0.03631187
147	0xbc0c57a8	-0.008565821
148	0xbbf8bceb	-0.00759088
149	0xbc47028b	-0.012146602
150	0xbcc8b82e	-0.024501886
151	0xbc98bced	-0.018644774
152	0xbce1078a	-0.027469415
153	0x3c4c49ac	0.012468737
154	0x3b66d2ec	0.0035220934
155	0x3c03c586	0.008042699
156	0x3c8b5d96	0.017012399
157	0xbcd7ae39	-0.026328193
158	0x3be0b39d	0.006857349
159	0xbcca5d27	-0.024702622
160	0xbc963534	-0.018335916
161	0xbcdaa0a8	-0.026687935
162	0xbcfa4f9d	-0.03055554
163	0x3c9c77f2	0.019100163
164	0xbc91fde5	-0.017821262
165	0xbd00ba7b	-0.03142784
166	0x3c85eb42	0.016347531
167	0x3d115ca3	0.035488736
168	0x3ba4f611	0.005034216
169	0x3c0adf60	0.008476108
170	0xbcd6b085	-0.026207218
171	0x3ca5e775	0.020251969
172	0x3c40e614	0.011773605
173	0x3c74435a	0.014908636
174	0xbd144196	-0.03619536
175	0xbd000b10	-0.03126055
176	0x3c4e67bd	0.012597975
177	0xbbbe9fda	-0.0058173956
178	0xbce01b8b	-0.027356884
179	0x3bd14acc	0.0063870903
180	0x3cbce808	0.02305986
181	0xbc164bdc	-0.00917336
182	0x3b18aa66	0.0023294925
183	0xbba2dabb	-0.0049699224
184	0x3c1e1159	0.009647691
185	0xbbd11854	-0.006381074
186	0x3c8e4d02	0.017370705
187	0x3b7455a4	0.003728249
188	0xbcdbfc08	-0.026853576
189	0xbcc37219	-0.023858117
190	0xbbd19cd9	-0.0063968715
191	0xbc6a38bf	-0.014295756
192	0xbc9d820f	-0.019227056
193	0x3c9dbfe6	0.019256543
194	0x3cdc6bfb	0.026906958
195	0x3b50634a	0.0031797462
196	0xbbfff07a	-0.0078106495
197	0xbbd897d4	-0.006609896
198	0xbd02dae4	-0.03194703
199	0xbcd5a31e	-0.026078757
200	0xbbda7d3c	-0.006667761
201	0x3cad47d8	0.021152422
202	0x3b7d31a0	0.0038634315
203	0xbb1719de	-0.002305619
204	0x3cb9de4e	0.022689011
205	0x3ca6ae5f	0.020346818
206	0x3c9ace60	0.018897235
207	0xba965db5	-0.0011472019
208	0x3b799172	0.0038081077
209	0xbcf7fbf2	-0.030271504
210	0xbc7affab	-0.015319745
211	0xbcca790a	-0.024715919
212	0xbb7278f0	-0.0036998354
213	0x3ca58171	0.020203324
214	0x3cd49e5d	0.02595442
215	0xbcc5c7cc	-0.024143122
216	0xbcd448ae	-0.025913563
217	0x3cf95f71	0.030441018
218	0x3cc9fe25	0.024657318
219	0x3d02aaf3	0.03190131
220	0x3bfd070b	0.007721787
221	0x3ce6b93c	0.028164499
222	0xbcf8dc56	-0.030378502
223	0x3c27df6f	0.010246142
224	0xbc85eaeb	-0.01634737
225	0x3c4872cf	0.012234404
226	0x3d0f1f1b	0.034941774
227	0xbcc3cba2	-0.02390081
228	0xbbf69834	-0.0075254682
229	0xbc49dd44	-0.01232082
230	0x3c9d44fc	0.019197933
231	0x3ce17db0	0.027525753
232	0x3a4ccc32	0.000781241
233	0x3ca57cdb	0.020201137
234	0x3c9e29fe	0.019307133
235	0xbc84f5c1	-0.016230466
236	0xbb88df1b	-0.004176987
237	0x3c95b14e	0.018273022
238	0x3cad1313	0.02112726
239	0xbc98b298	-0.018639848
240	0x3b718090	0.003685031
241	0xbcbf871f	-0.02337986
242	0xbad25bcd	-0.0016049087
243	0x3c8837c2	0.01662815
244	0xbba77a99	-0.0051110503
245	0xbcde27a2	-0.027118508
246	0x3a3e3f54	0.00072573614
247	0xbc5de798	-0.013543986
248	0x3bf14466	0.00736289
249	0x3cc5bcc7	0.024137868
250	0x3c8150b5	0.015785554
251	0xbd069690	-0.03285843
252	0xbccd1e23	-0.025038784
253	0x3abc18ee	0.0014350691
254	0xbbee212d	-0.0072671385
255	0x3c5da53d	0.013528165

weight f4 [128, 256]
0	0xbc972a00	-0.018452644
1	0x3b3e1364	0.0029003257
2	0x3d38aac3	0.045084726
3	0xbc986b01	-0.018605711
4	0xbcc4687a	-0.0239756
5	0x3ca347c5	0.019931683
6	0x3cc838a8	0.024441078
7	0x3d4bb574	0.049733594
8	0x3c62c662	0.013841243
9	0x3c0d5365	0.00862584
10	0xbc863cdd	-0.016386444
11	0x3da22c1b	0.07918569
12	0x3d1d63b9	0.03842518
13	0xbc6b3bf1	-0.014357553
14	0xbc1b8a57	-0.009493432
15	0x3cf93ae9	0.030423598
16	0xbdcc1059	-0.099640556
17	0xbd0f09aa	-0.034921326
18	0x3d69ec43	0.057110082
19	0x3d030948	0.031991273
20	0xbd53c30f	-0.051699694
21	0x3c9b3885	0.018947849
22	0xbd4c2f3e	-0.04984974
23	0x3d55378d	0.05205493
24	0xbac5e2e7	-0.0015097529
25	0xbce672c4	-0.028130896
26	0xbc9188ab	-0.017765364
27	0xbd214db6	-0.03938075
28	0x3aec9af7	0.0018051554
29	0xbc683384	-0.0141724385
30	0x3d2bcff5	0.04194637
31	0x3c0f19b1	0.008734153
32	0xbd19f7a8	-0.0375897
33	0xbd620a6c	-0.05518572
34	0x3c6db035	0.014507343
35	0x3d91eb27	0.0712493
36	0x3cbb654c	0.02287545
37	0xbd48c46c	-0.049015447
38	0x3d95003e	0.07275437
39	0x3b59d277	0.003323702
40	0x3b846f2d	0.0040415735
41	0xbdac4f47	-0.084135585
42	0xbb9c7196	-0.0047742827
43	0xbd005854	-0.031334236
44	0xbc0cd765	-0.008596276
45	0xbcac850a	-0.021059532
46	0x3d920067	0.07128983
47	0xbe037b55	-0.12840016
48	0xbd2a5fd2	-0.041595288
49	0x3c1f7a33	0.009733724
50	0x3d36f5be	0.04466795
51	0x3cc2b47e	0.023767706
52	0xbcbdfc58	-0.023191616
53	0xbb973db6	-0.004615511
54	0x3d5cfa33	0.053949546
55	0xbd05789a	-0.032585718
56	0xbd23ba30	-0.039972484
57	0xbd5152e4	-0.05110444
58	0xbbb1642f	-0.005413554
59	0xbcbb450f	-0.022860078
60	0x3a1cab87	0.00059764873
61	0x3c81a548	0.015825883
62	0xbcd7c46a	-0.026338775
63	0xbd23c505	-0.039982814
64	0x3ca65341	0.02030337
65	0xbd39ba73	-0.045343827
66	0xbd9e58b3	-0.07731762
67	0xbbce42f3	-0.006294602
68	0xbbd58ebe	-0.0065172603
69	0x3ce12823	0.027484959
70	0xbc27008a	-0.010193
71	0xbd30d29e	-0.04316961
72	0xbd3ad72b	-0.045615356
73	0xbc63eb57	-0.01391109
74	0x3ce36324	0.027757235
75	0x39a80a94	0.00032051338
76	0xbc93cf49	-0.018043177
77	0x3d91d84c	0.071213335
78	0xbc2b69ea	-0.010462264
79	0xbcb5a6cb	-0.02217426
80	0xbd378efc	-0.044814095
81	0xbda1394b	-0.07872256
82	0x3a9d866e	0.0012018213
83	0x3d2eac19	0.042644594
84	0x3d7d4556	0.061833702
85	0x3d4a10d6	0.049332462
86	0x3d07b784	0.033134
87	0xbd4b2d82	-0.049603947
88	0xbdb62fb0	-0.088958144
89	0x3d45ca8e	0.048288874
90	0xbc898add	-0.016789848
91	0xbcee52f3	-0.029092288
92	0x3c90afb3	0.017661905
93	0xbb85f7a0	-0.004088357
94	0xbd7ce652	-0.061743088
95	0x3d066115	0.03280743
96	0x3d327427	0.043567803
97	0xbd04090d	-0.032235194
98	0x3b973d0d	0.004615432
99	0x3b4a25f2	0.003084537
100	0xbd23e780	-0.040015697
101	0xbc061888	-0.00818456
102	0xbc332b36	-0.010935595
103	0x3b9d5e95	0.004802535
104	0xbdb740fc	-0.08947942
105	0xbde5fd2c	-0.11229929
106	0x3a63a76a	0.00086843094
107	0xb88643f5	-6.402276e-05
108	0xbd01e0e7	-0.031708624
109	0xbc46dbb4	-0.012137342
110	0x3d1f7a13	0.03893478
111	0xbcaeebdc	-0.0213527
112	0x3cd1c793	0.02560786
113	0x3d20a8fa	0.03922365
114	0xbc7d810d	-0.015472663
115	0xbcbb9c64	-0.022901721
116	0x3c954f68	0.01822634
117	0xbca6eef5	-0.020377615
118	0xbaa843fa	-0.0012837641
119	0x3c43600a	0.011924753
120	0x3c98c036	0.01864634
121	0x3cac511b	0.021034768
122	0xbd399313	-0.045306277
123	0xbd08abb2	-0.033366866
124	0x3c3d1f0c	0.011543047
125	0x3d34e2a5	0.044161458
126	0xbd8908e4	-0.06691149
127	0xbca89e88	-0.020583406
128	0xbb280788	-0.0025639255
129	0xbc091bba	-0.008368427
130	0x3c920408	0.017824188
131	0xbd1e94ce	-0.03871613
132	0xbc4b4ced	-0.012408477
133	0xbc4072a8	-0.011746086
134	0x3d2ce9d1	0.042215172
135	0x3d8f3ad8	0.069936454
136	0x3c3b165d	0.011418906
137	0xbc1a74d1	-0.009427265
138	0x3db505c6	0.08838992
139	0x3c406805	0.01174355
140	0x3cc301be	0.023804542
141	0x3cb2f1db	0.021843841
142	0xbd1c5fa6	-0.038177155
143	0x3c4d3491	0.01252474
144	0x3c804eee	0.015662637
145	0x3d13a2fc	0.036044106
146	0x3cc12475	0.023576954
147	0xbc5acfef	-0.013355239
148	0x3bbafbc2	0.0057062814
149	0x3d076c6e	0.03306239
150	0xbd95c76b	-0.073134266
151	0x3d048f8e	0.032363467
152	0xbd1e13d2	-0.03859312
153	0xbc6c1acf	-0.014410689
154	0xbda96dc7	-0.082728915
155	0x3d50ab65	0.050944705
156	0xbd2af1fa	-0.041734673
157	0xbb17b6e4	-0.0023149783
158	0xbce7a62f	-0.028277485
159	0xbdf4668f	-0.11933624
160	0xbd5cc642	-0.05390001
161	0x3ca75805	0.020427713
162	0xbd413228	-0.047166973
163	0xbdbe4e98	-0.09292334
164	0x3d98e4cd	0.07465515
165	0xbdeff066	-0.11715774
166	0x3d47fa81	0.048822884
167	0xbdb5e9d8	-0.08882493
168	0xbc8f9918	-0.017529055
169	0x3cb22f8e	0.021751191
170	0xbc5da465	-0.013527964
171	0x3cb72eae	0.022361126
172	0xbca7f91d	-0.020504529
173	0xbc40206d	-0.011726481
174	0xbd7c45c6	-0.06158998
175	0xbb58601b	-0.0033016268
176	0x3cc4f52c	0.024042688
177	0xbcd1ad28	-0.025595263
178	0x3d13c00b	0.03607182
179	0xbc8fa819	-0.01753621
180	0x3d167737	0.036734786
181	0x3d85595b	0.06511184
182	0x3c03bece	0.008041097
183	0xbc986753	-0.018603956
184	0xbd12b996	-0.03582152
185	0x3c4ac461	0.012375922
186	0xbcbcf813	-0.02306751
187	0xbd1e4905	-0.038643856
188	0x3c399132	0.011326121
189	0xbc64687a	-0.013940925
190	0xbc514268	-0.01277218
191	0xbd6b74b3	-0.05748434
192	0xbd3d049b	-0.04614697
193	0x3c84dd11	0.016218694
194	0x3c78d7af	0.015188142
195	0x3be7b61b	0.007071269
196	0x3cacf2dc	0.021111898
197	0xbc0dbf34	-0.008651543
198	0xbd860218	-0.06543368
199	0x3ce9b276	0.02852748
200	0x3d143c80	0.03619051
201	0x3b0ad7b4	0.0021185698
202	0x3cba945a	0.022775818
203	0x3d4d4114	0.05011089
204	0x3d586f0f	0.05284029
205	0x3d0c3af9	0.03423593
206	0xbb9a08d5	-0.00470076
207	0x3d8334be	0.06406544
208	0xbcae4f56	-0.021278065
209	0x3c49a1c7	0.012306637
210	0xbc22396f	-0.009901389
211	0x3d02032e	0.031741314
212	0xbb106ce4	-0.002203756
213	0x3d0f8815	0.035041887
214	0xbcbff2b5	-0.023431161
215	0xbbd7c093	-0.006584236
216	0x3db8b950	0.090197206
217	0x3c20e0c8	0.009819217
218	0x3d053dc2	0.0325296
219	0x3d3b5c42	0.04574228
220	0xbd37f0e6	-0.044907473
221	0x3d056ad8	0.032572597
222	0xba960f9f	-0.0011448747
223	0x3d0208e7	0.03174677
224	0x3d84ac59	0.06478185
225	0xbad698bb	-0.0016372422
226	0xbd292eb7	-0.041304316
227	0xbc58cffc	-0.013233181
228	0x3d088030	0.033325374
229	0x3d06afd9	0.032882545
230	0xbb20af86	-0.0024518683
231	0x3d2eea9d	0.042704213
232	0x3c483d1f	0.012221604
233	0x3d3d94f9	0.04628465
234	0x3d1e35b0	0.03862542
235	0x3d65b933	0.056084823
236	0xbc6f1709	-0.014592894
237	0xbc96a249	-0.01838793
238	0xbc8c1999	-0.01710205
239	0x3d2d9699	0.04237995
240	0xbd875839	-0.06608624
241	0xbcf762bc	-0.030198447
242	0x3ced6a22	0.028981272
243	0xbd5c8269	-0.053835306
244	0x3d5674ac	0.05235736
245	0xbb4fe559	-0.0031722395
246	0xbd2f377b	-0.04277752
247	0x3d8170cf	0.06320345
248	0x3a90fe72	0.0011062159
249	0xbaf3ffbe	-0.0018615646
250	0xbd83c1f5	-0.06433479
251	0x3cf935cf	0.030421166
252	0xb8965956	-7.1691975e-05
253	0xbdc9db04	-0.09856227
254	0xbd167258	-0.03673014
255	0xbd55c5ca	-0.05219058

bias f4 [128]
0	0xbd13fd1b	-0.036130052
1	0x3d19e07d	0.037567604
2	0xbd5d22f7	-0.053988423
3	0x3be920ae	0.0071144914
4	0x3d8a4eba	0.06753297
5	0xbcea0a78	-0.028569445
6	0xbd703570	-0.058644712
7	0xbcd2a92c	-0.025715433
8	0xbd366ef2	-0.0445394
9	0x3cd17ec3	0.02557314
10	0x3cb5be61	0.022185506
11	0x3b313822	0.0027041514
12	0x389f2eef	7.590453e-05
13	0xbcfb2164	-0.03065557
14	0x3cf2c54c	0.029635094
15	0x3d5be35c	0.053683624
16	0x3c8fbf1d	0.017547185
17	0xbd1d7734	-0.03844376
18	0x3d10fa74	0.0353951
19	0xbc35a757	-0.01108726
20	0x3d185dca	0.03719882
21	0xbc451a17	-0.012030146
22	0xbca8ef09	-0.020621793
23	0xbba2d651	-0.004969396
24	0x3d574395	0.052554686
25	0xbd2476fb	-0.04015253
26	0xbd3d4744	-0.046210542
27	0x3bbdd585	0.005793276
28	0xbd34c4c5	-0.044132967
29	0x3d8c757b	0.06858345
30	0xbc4c56c0	-0.012471855
31	0xbd2a4a2c	-0.041574642
32	0x3cdefb6b	0.027219495
33	0xbd45dd96	-0.048307024
34	0x3b68a17c	0.0035496643
35	0x3d0edb64	0.034877196
36	0xbd1341ae	-0.03595131
37	0xbc279a39	-0.010229641
38	0xbcf017aa	-0.029308159
39	0xbd7e9693	-0.062155318
40	0xbd4b06ed	-0.04956715
41	0xba17cc3c	-0.0005790626
42	0x3cf21ecb	0.029555699
43	0xbd04abc2	-0.032390364
44	0x3cb0f859	0.021602796
45	0x3aa76dff	0.001277387
46	0xbd2638f7	-0.04058167
47	0x3d529887	0.051414993
48	0xbcb31ab3	-0.021863317
49	0x3c521ced	0.012824279
50	0xbd2ea1f2	-0.04263491
51	0x3bf47cd6	0.0074611707
52	0xbc346958	-0.011011444
53	0x3d60967d	0.054831017
54	0xbd508171	-0.050904695
55	0xbc8acf1b	-0.016944459
56	0x3d49de5e	0.04928433
57	0x3cbff2ef	0.02343127
58	0x3d642589	0.05569986
59	0x3d38e94a	0.045144357
60	0x3d274659	0.040838573
61	0x3c0f04e1	0.008729191
62	0xbd573ce4	-0.052548304
63	0xbd6393f4	-0.05556102
64	0x3d07be58	0.03314051
65	0xbd047856	-0.032341324
66	0xbcaa5010	-0.02079013
67	0x3d350771	0.04419655
68	0xbd26bc36	-0.040706836
69	0x3d39b29a	0.045336343
70	0xbcb47987	-0.022030605
71	0x3d66ce65	0.056349177
72	0x3d0f9841	0.03505731
73	0x3cdee64c	0.027209423
74	0xbc6df89a	-0.014524603
75	0x3c677ebc	0.014129337
76	0x3bdd0f54	0.006746212
77	0xbd0e7359	-0.034777973
78	0x3d0832f6	0.033251725
79	0xbd293ad4	-0.04131587
80	0xbd2b56e8	-0.041830927
81	0x3d024c20	0.03181088
82	0xbd4e4c5f	-0.050365802
83	0xbcc525c7	-0.024065865
84	0xbb0586e2	-0.0020374586
85	0xbd532448	-0.051548272
86	0x3cf7e866	0.030262183
87	0xba4c335e	-0.0007789637
88	0xbd165ea7	-0.03671136
89	0x3ce7ff87	0.028320087
90	0xbc829961	-0.015942277
91	0xbc287307	-0.010281331
92	0xbb88d5ff	-0.004175901
93	0x3d5e9ae1	0.054346923
94	0xbd34905d	-0.044082988
95	0x3c49b99b	0.012312318
96	0x3d23a2a8	0.039950043
97	0x3d643602	0.05571557
98	0x3c1ee649	0.009698459
99	0xbcf53e47	-0.029936923
100	0xbd5942d5	-0.05304225
101	0xbd1b1692	-0.03786332
102	0xbc6ccb78	-0.014452808
103	0xbd09dac4	-0.033655897
104	0xbd6fc188	-0.058534175
105	0xbc9f3cb9	-0.019438135
106	0xbd692b95	-0.05692633
107	0xbc938905	-0.018009672
108	0xbce1c48e	-0.027559545
109	0x3cac3ac9	0.021024125
110	0x3d408de6	0.047010325
111	0x3aa082e3	0.0012246039
112	0xbbb61c56	-0.005557577
113	0xbd51d2e9	-0.05122653
114	0xbd1c10c7	-0.038101938
115	0xbd1ca93d	-0.038247336
116	0x3ce0c68a	0.02743842
117	0x3c7e4b3e	0.015520869
118	0x3c7afa61	0.015318484
119	0xbd63d9e9	-0.055627737
120	0xbd4823f5	-0.048862416
121	0xbd3a2a17	-0.045450296
122	0x3d46fb72	0.04857964
123	0x3ce600a6	0.028076481
124	0xbc7f66cd	-0.015588474
125	0x3d4be6b8	0.049780577
126	0x3d4a099b	0.049325567
127	0x3c78d987	0.015188581

weight f4 [10, 128]
0	0x3c3c9936	0.011511138
1	0xbdb927a9	-0.09040768
2	0x3dc247ef	0.094863765
3	0xbe311680	-0.1729374
4	0xbe635112	-0.22198895
5	0xbdf2be9a	-0.118527606
6	0x3e592e81	0.21209146
7	0x3d037773	0.032096338
8	0x3c91ad5f	0.017782865
9	0xbda5b8cc	-0.08091888
10	0xbe3d88fe	-0.1850929
11	0xbe44fd41	-0.19237234
12	0xbe4ac381	-0.19801141
13	0xbe2e4603	-0.17018895
14	0x3e2b4d54	0.16728717
15	0xbd0179e9	-0.031610403
16	0x3e8e4232	0.27784878
17	0x3e0f8ace	0.14017794
18	0xbdc498b6	-0.0959944
19	0xbdeff567	-0.11716729
20	0xbe21da20	-0.15805864
21	0xbda96ccd	-0.08272705
22	0x3de50471	0.11182488
23	0xbdc95a38	-0.09831661
24	0x3db038a3	0.086045526
25	0xbc3eee0a	-0.011653433
26	0x3e090dd1	0.13384177
27	0x3e02c13b	0.12769024
28	0xbe067ce3	-0.13133578
29	0xbd20e7ce	-0.039283566
30	0xbe0cac98	-0.13737714
31	0xbde7de69	-0.11321718
32	0xbe4b9e73	-0.19884662
33	0xbe6a0a4a	-0.22855487
34	0x3e6ea5c7	0.23305427
35	0xbc3ee4e6	-0.011651253
36	0xbe490177	-0.19629465
37	0xbe90a2f1	-0.28249314
38	0x3e43897a	0.19095412
39	0xbe17f69a	-0.14840165
40	0x3e3af159	0.1825613
41	0xbe35245f	-0.17689656
42	0xbdf47bd6	-0.11937682
43	0xbe1cf754	-0.15328723
44	0x3d4b86d6	0.049689136
45	0xbc1f0374	-0.009705413
46	0xbe40fc60	-0.18846273
47	0x3e35bfae	0.17748901
48	0x3e6604a1	0.22462703
49	0xbca88f0d	-0.020576024
50	0xbdec7e89	-0.11547572
51	0xbdf9a654	-0.12189928
52	0x3cfa20e8	0.030533269
53	0x3d79d2aa	0.06099192
54	0x3d3ee388	0.04660371
55	0xbdb51e1f	-0.08843636
56	0xbe1ccdb8	-0.1531285
57	0xbc665022	-0.014057191
58	0x3d13f834	0.036125377
59	0xbe185432	-0.14875868
60	0xbe09f96d	-0.13474055
61	0x3dff430c	0.1246396
62	0x3d30ab09	0.04313186
63	0x3dff1318	0.12454814
64	0xbd2e63f5	-0.042575795
65	0xbe1422b9	-0.1446637
66	0xbd91b3ee	-0.07114397
67	0x3e678abb	0.22611515
68	0xbe2d7039	-0.16937341
69	0x3e2ebc5e	0.17064044
70	0x3e6b9520	0.23006105
71	0xbe1682b1	-0.14698292
72	0xbe39a6ac	-0.18129987
73	0x3e462163	0.19348674
74	0xbd82c91a	-0.06386013
75	0xbe1b6b58	-0.15177667
76	0xbe0ecab6	-0.13944516
77	0xbe6a11c5	-0.22858341
78	0x3d9600fc	0.073244065
79	0xbda240a0	-0.079224825
80	0xbe2d2107	-0.1690713
81	0xbda3e86e	-0.08003317
82	0xbdc50110	-0.09619343
83	0x3e457656	0.19283423
84	0xbe68ee15	-0.22747071
85	0x3cfccba4	0.030858822
86	0x3db88914	0.090105206
87	0xbe283bc0	-0.16429043
88	0xbd42437d	-0.047427643
89	0xbdd991f4	-0.106235415
90	0xbd29278b	-0.041297477
91	0x3dce75fa	0.10081096
92	0xbe62be6b	-0.22142951
93	0xbe226bee	-0.15861484
94	0xbd566aa1	-0.052347783
95	0x3e6116b9	0.21981324
96	0xbe431705	-0.1905175
97	0xbd01fb27	-0.03173366
98	0xbe67002e	-0.22558662
99	0xbe54a7af	-0.20767091
100	0xbe21d686	-0.1580449
101	0x3de03449	0.109474726
102	0x3dff791f	0.12474274
103	0xbcaff638	-0.021479711
104	0xbd383501	-0.044972423
105	0xbd86be78	-0.06579298
106	0xbd2aecdc	-0.041729793
107	0xbe42dc13	-0.19029264
108	0xbdeeb76b	-0.11656078
109	0xbe3e1079	-0.18560971
110	0xbe52d5b0	-0.20589328
111	0x3e1716ac	0.14754742
112	0xbc8d1429	-0.017221527
113	0x3e715561	0.23567726
114	0xbdb665c8	-0.08906132
115	0xbe45504e	-0.19268915
116	0x3b5d95d7	0.0033811235
117	0x3e289fe7	0.16467248
118	0xbe201250	-0.15631986
119	0xbd9300d7	-0.071778946
120	0x3e172a46	0.1476222
121	0x3c5807d0	0.013185456
122	0x3e4a23cc	0.19740218
123	0xbd8a8b2f	-0.067648284
124	0xbe5916f5	-0.21200164
125	0xbe62e8e4	-0.22159153
126	0xbe060d9d	-0.1309113
127	0xbe44e616	-0.19228396
128	0xbe84aef9	-0.25914744
129	0xbe361d06	-0.17784509
130	0x3e1a91b8	0.1509465
131	0x3e3fbbd1	0.1872399
132	0xbcd506ed	-0.026004279
133	0xbe1b619b	-0.15173952
134	0xbe4dfc20	-0.2011571
135	0xbc90c34a	-0.017671246
136	0xbe432330	-0.19056392
137	0x3d154bc6	0.036449216
138	0x3e299eff	0.16564558
139	0x3dd8d5ed	0.10587678
140	0x3e101ce0	0.14073515
141	0x3d91b47b	0.07114502
142	0xbe182c5b	-0.1486067
143	0xbe00e2fe	-0.1258659
144	0xbe07149b	-0.13191454
145	0xbe36656f	-0.17812131
146	0x3e3aea6b	0.18253486
147	0x3e2590b5	0.16168483
148	0xbdffd67a	-0.1249208
149	0xbe68f3b7	-0.2274922
150	0xbdb8eb08	-0.09029204
151	0xbdb0b8a7	-0.0862897
152	0x3b5d0bae	0.0033728885
153	0x3e10320a	0.14081588
154	0xbdc71cc5	-0.09722284
155	0xbe6006a5	-0.21877535
156	0xbe735a3f	-0.23764895
157	0xbd52e021	-0.051483277
158	0xbe34440b	-0.17604081
159	0x3daf8f76	0.08572285
160	0xbe22bf32	-0.15893248
161	0x3e62329b	0.22089617
162	0xbdd970d1	-0.10617221
163	0xbde4b663	-0.111676
164	0xbe1b8210	-0.15186334
165	0x3e488cd0	0.19584966
166	0x3dbe8249	0.09302194
167	0xbe52b9c6	-0.2057868
168	0xbe6a3bb4	-0.22874337
169	0x3e0dc5fb	0.13845055
170	0xbdf477ca	-0.119369105
171	0xbe7611e0	-0.24030256
172	0xbdfebf30	-0.1243881
173	0x3d9c003d	0.07617233
174	0x3d73d97a	0.059533574
175	0x3c3eaa90	0.011637345
176	0x3dbc91f8	0.09207529
177	0x3d0b4e92	0.034010477
178	0x3df8ebe9	0.12154371
179	0x3d74b1e9	0.05973998
180	0xbe1e5b42	-0.154645
181	0x3e206afe	0.15665814
182	0xbe10fbf7	-0.14158617
183	0x3e5287c2	0.205596
184	0xbc09c603	-0.008409026
185	0x3de980bd	0.11401508
186	0xbe49a469	-0.19691624
187	0xbd56e28e	-0.052462153
188	0xbdc5dd38	-0.09661335
189	0xbd1dac8a	-0.038494624
190	0xbe0ab801	-0.13546754
191	0x3e3ebb5a	0.18626156
192	0xbe2fce41	-0.17168523
193	0xbdff9532	-0.124796286
194	0x3bb306cf	0.005463458
195	0xbe3fe25b	-0.18738692
196	0xbdc74771	-0.09730423
197	0xbe0569f3	-0.13028698
198	0xbdebd7ba	-0.11515756
199	0xbe101f36	-0.14074406
200	0x3c3943d5	0.011307676
201	0x3e542fdd	0.20721383
202	0x3e1db8a1	0.15402462
203	0x3e1ac190	0.151129
204	0x3cd8a0ee	0.026443925
205	0xbe39e79f	-0.18154763
206	0x3d8ec310	0.06970799
207	0xbda8cd89	-0.08242328
208	0xbe37cf18	-0.17950094
209	0xbdf37c02	-0.11888887
210	0x3e2d0fe2	0.1690059
211	0x3e06258a	0.13100258
212	0x3d65e1f6	0.056123696
213	0xbe669e8e	-0.22521421
214	0xbd628435	-0.055301864
215	0x3deecc7d	0.11660097
216	0xbdc43b38	-0.095816076
217	0x3e0d0a04	0.13773352
218	0xbe49463f	-0.19655703
219	0xbe15df03	-0.14635853
220	0xbe52154b	-0.20515935
221	0xbe345726	-0.1761137
222	0x3e4dbad5	0.20090802
223	0xbe4cb1cd	-0.199897
224	0x3df0f9f8	0.11766428
225	0xbdfd7f0a	-0.123777464
226	0x3c7512d1	0.014958099
227	0xbe52f581	-0.20601465
228	0xbe021d90	-0.1270659
229	0xbe10083e	-0.14065644
230	0xbdeae07f	-0.114686005
231	0xbdadedee	-0.08492647
232	0x3e2e9039	0.17047204
233	0x3e03edc2	0.12883666
234	0xbe0d2cb0	-0.13786578
235	0xbc26cf00	-0.010181189
236	0xbdd8a703	-0.1057873
237	0xbe1e79dd	-0.15476175
238	0xbd136b38	-0.035990924
239	0xbd822a62	-0.0635574
240	0xbe454117	-0.19263111
241	0xbd03a18c	-0.032136485
242	0xbc3d84b4	-0.011567283
243	0x3d91c3a3	0.07117393
244	0x3e123338	0.14277351
245	0xbe1f4231	-0.15552594
246	0xbe1a6697	-0.15078197
247	0xbdfb773d	-0.12278602
248	0xbd6d4124	-0.05792345
249	0xbe06fb06	-0.13181695
250	0xbe1af747	-0.15133391
251	0x3e3ad6e8	0.18246043
252	0x3d6fcde8	0.058545977
253	0xbe091cb9	-0.13389863
254	0x3de2eb9e	0.11080097
255	0xbd90b0f7	-0.07065003

bias f4 [10]
0	0xbdaa49fb	-0.08314892
1	0xbd4ec9b6	-0.050485335
2	0x3d85ca86	0.06532769
3	0x3d547d3d	0.05187725
4	0x3d0c71ce	0.03428822
5	0xbd8d52d2	-0.06900562
6	0xbdd20a59	-0.1025588
7	0x3d89b2bf	0.06723546
8	0x3d4c6636	0.049902163
9	0xbd82c57d	-0.06385324
