lenet/lenet.pth (torch, 257507 bytes, 18 tensors)

weight f4 [6, 1, 5, 5]
0	0xbd04c982	-0.032418735
1	0x3da625d6	0.081126854
2	0xbe1a0552	-0.15041092
3	0xbdac7d7e	-0.08422373
4	0x3bccfe55	0.0062559047
5	0x3d62a1b7	0.055330005
6	0xbc72ca61	-0.014818759
7	0x3e0432ac	0.12909955
8	0xbcc440a3	-0.023956602
9	0x3d80728a	0.062718466
10	0xbc618dae	-0.013766689
11	0xbcc35509	-0.023844259
12	0xbe4f6a88	-0.20255482
13	0xbe10a615	-0.14125855
14	0xbd9923f7	-0.07477563
15	0x3cee8a04	0.029118545
16	0x3dc91143	0.098177455
17	0x3e0d6ec2	0.13811782
18	0xbe017833	-0.12643509
19	0xbdba18c6	-0.090867564
20	0xbb5a60d8	-0.0033321884
21	0x3e2c57ea	0.16830412
22	0x3d5c29fc	0.053750977
23	0x3e50493f	0.20340441
24	0xbcb6b2c9	-0.022302048
25	0x3c945b7c	0.01811003
26	0x3e461123	0.19342475
27	0xbdcf32f5	-0.10117141
28	0xbc35ca60	-0.011095613
29	0xbd2d7b8d	-0.042354155
30	0xbe0ede3d	-0.13951965
31	0x3de5b1e1	0.11215568
32	0xbe30573b	-0.17220776
33	0xbdf3cd10	-0.11904347
34	0xbe75aed1	-0.23992468
35	0xbe77d140	-0.24200916
36	0xbe4caead	-0.19988509
37	0x3daab003	0.08334353
38	0x3d74bd9f	0.05975115
39	0x3cf07bf4	0.02935598
40	0x3bb9f39d	0.005674793
41	0xbdf7bbca	-0.12096365
42	0x3c1b09bf	0.009462773
43	0xbe10216f	-0.14075254
44	0xbdfbdbb1	-0.12297762
45	0xbdc6325c	-0.09677574
46	0x3dffbfb2	0.12487735
47	0x3dec2934	0.11531296
48	0xbd38ead4	-0.045145825
49	0x3d33627f	0.043795105
50	0x3d696ea7	0.056990292
51	0x3e1c75d6	0.15279326
52	0x3d52b601	0.051443104
53	0x3cab1018	0.020881698
54	0x3e427369	0.18989338
55	0xbe138fc7	-0.14410315
56	0x3d2ebec8	0.042662412
57	0xbddc521c	-0.107578486
58	0xbda1e948	-0.07905823
59	0x3bc81a1b	0.0061066276
60	0x3d3e4d55	0.04646047
61	0x3d93d783	0.0721884
62	0xbdcd454a	-0.100229815
63	0x3dc57c2f	0.09642827
64	0x3e396449	0.18104662
65	0xbd84db7a	-0.06487174
66	0xbcb912ce	-0.022591975
67	0x3cb7ef75	0.02245305
68	0x3e11fb59	0.14256038
69	0x3e456e31	0.19280316
70	0xbe30d467	-0.17268525
71	0xbdae75bf	-0.08518552
72	0x3d83dfbd	0.06439159
73	0x3e4907f9	0.19631948
74	0x3e5fa237	0.21839224
75	0x3e1f0b72	0.1553171
76	0x3d38e72d	0.04514234
77	0xbe1626ee	-0.14663288
78	0x3d131b1a	0.035914518
79	0xbe0895b1	-0.13338353
80	0xbe1c948f	-0.15291046
81	0x3e5e6ff5	0.21722396
82	0x3e30bf38	0.17260444
83	0xbe4b992f	-0.19882654
84	0xbc61d2e7	-0.013783193
85	0x3c83c553	0.016085302
86	0x3cba39e6	0.022732686
87	0xbdaffb13	-0.085928105
88	0x3d39e68d	0.045385886
89	0xbe3a76c7	-0.18209372
90	0x3dcb2b7b	0.099204026
91	0x3de1835c	0.11011383
92	0x3dc33527	0.095316224
93	0x3ceb085f	0.028690515
94	0xbe5da0fb	-0.2164344
95	0xbd828af3	-0.06374159
96	0x3e0e0cd5	0.13872083
97	0x3cca0134	0.024658777
98	0xbe26e2c7	-0.16297446
99	0xbd9a9dd8	-0.075496376
100	0x3e29d054	0.16583377
101	0x3e12ccc0	0.14335918
102	0xbda7dbba	-0.081962064
103	0xbd967f34	-0.07348481
104	0xbe30b0e1	-0.17254974
105	0xbcd07e07	-0.02545072
106	0xbe252a38	-0.16129386
107	0xbe301082	-0.17193797
108	0xbd16cc48	-0.03681591
109	0x3d5d051f	0.053959962
110	0xbda0762e	-0.07835041
111	0x3e012a90	0.12613893
112	0xbdf050c0	-0.11734152
113	0x3e2c0f69	0.16802754
114	0x3e1cc7e7	0.15310632
115	0xbe187e7f	-0.14892004
116	0xbc5f70e2	-0.013637753
117	0x3d342fa3	0.043990742
118	0x3d259a38	0.040430278
119	0x3d42a66a	0.047521986
120	0x3d8ac2cd	0.067754366
121	0x3d26cb36	0.04072114
122	0xbd5f9230	-0.054582775
123	0x3dd6a80f	0.104812734
124	0xbe446251	-0.1917813
125	0xbe01f9db	-0.12692969
126	0xbdb12fe2	-0.08651711
127	0xbdd3a20e	-0.10333644
128	0xbd4242c1	-0.047426943
129	0xbe1c0949	-0.15237917
130	0xbd215731	-0.039389793
131	0x3c603c78	0.013686292
132	0xbdea639b	-0.114447795
133	0x3d205269	0.039141092
134	0x3e27ad94	0.16374809
135	0x3bd6417e	0.006538569
136	0xbc0677d2	-0.008207278
137	0x3c024ed0	0.007953361
138	0x3db26c90	0.08712113
139	0x3e22f66d	0.15914316
140	0x3e61f008	0.22064221
141	0x3dfbf366	0.12302284
142	0x3e609f44	0.21935755
143	0x3d2051e0	0.039140582
144	0xbdeeff15	-0.11669747
145	0xbd82bc21	-0.06383539
146	0x3e0a2049	0.13488878
147	0x3cc865f1	0.024462672
148	0xbd1c7619	-0.038198564
149	0xbdc7bb44	-0.09752515

bias f4 [6]
0	0xbe39c54a	-0.18141666
1	0xbe2a9433	-0.16658096
2	0xbd25ca37	-0.04047605
3	0x3dd87edc	0.105710715
4	0x3dd86b78	0.10567373
5	0xbe4cc3d4	-0.19996578

weight f4 [6]
0	0x3f7d6899	0.9898773
1	0x3f852660	1.0402336
2	0x3f777b47	0.9667248
3	0x3f839d24	1.028233
4	0x3f7a02bf	0.9766044
5	0x3f683230	0.9070158

bias f4 [6]
0	0xbcf8c839	-0.030368911
1	0x3bf28b19	0.0074018356
2	0x3da8807b	0.08227631
3	0xbb5470cd	-0.0032415867
4	0xbcc3bde1	-0.023894252
5	0xbb9e368e	-0.004828281

running_mean f4 [6]
0	0xbe35b9c9	-0.17746653
1	0xbeaba89b	-0.33527073
2	0x3dff56bc	0.12467715
3	0x3d89af17	0.06722849
4	0x3d9e2115	0.07721154
5	0xbe224d05	-0.15849693

running_var f4 [6]
0	0x3c63ea5a	0.013910854
1	0x3d8b4599	0.06800384
2	0x3db946a8	0.0904668
3	0x3d27e9fd	0.040994633
4	0x3c4e6037	0.012596182
5	0x3d15ffb2	0.036620803

weight f4 [16, 6, 5, 5]
0	0x3d576ba9	0.052592907
1	0xbdda5709	-0.10661132
2	0x3a643122	0.0008704831
3	0xbbd8d935	-0.00661769
4	0xbce9faf6	-0.02856205
5	0x3c076989	0.008264908
6	0xbd9b12a4	-0.07571915
7	0xbd264c3c	-0.040600047
8	0x3b802817	0.003911029
9	0x3c071ba3	0.008246335
10	0xbd444e02	-0.047925957
11	0x3bd11013	0.00638009
12	0xbd861491	-0.065468915
13	0xbb97d034	-0.004632974
14	0x3d359c5b	0.044338565
15	0xbd92e6ed	-0.07172952
16	0x3be07c3a	0.0068507465
17	0x3d00110c	0.031266257
18	0xbd64edba	-0.055890776
19	0x3d26bbdb	0.040706497
20	0x3c8c9de5	0.017165134
21	0xbcfab4b1	-0.030603739
22	0x3d9f4afe	0.077779755
23	0xbd278775	-0.040900666
24	0x3cefbc35	0.029264549
25	0x3cd35e00	0.025801659
26	0x3da46c6a	0.08028491
27	0x3d4bedb8	0.049787253
28	0x3d35f097	0.044418897
29	0x3d8b7bb3	0.06810703
30	0xbb5d55b8	-0.0033773016
31	0xbc89e758	-0.016833946
32	0xbd6fe6b6	-0.058569632
33	0xbc8f9480	-0.017526865
34	0x3d2a7b22	0.041621335
35	0x3ca86c4f	0.020559458
36	0xbde044c2	-0.109506145
37	0xbce1ac2c	-0.027547918
38	0xbdabc41d	-0.08387015
39	0xbcf48a22	-0.029851023
40	0xbd8ab38b	-0.06772526
41	0xbc02a7ad	-0.007974547
42	0xbd2103d6	-0.0393103
43	0xbc835ba4	-0.016034909
44	0xbd4592b8	-0.048235625
45	0x3d18fe5c	0.03735195
46	0xbd9a3618	-0.07529849
47	0xbd4d68f9	-0.050148938
48	0xbd29d430	-0.041462123
49	0x3d2f45c1	0.042791132
50	0xbd034575	-0.03204866
51	0x3d6361ad	0.055513073
52	0x3cadc364	0.021211334
53	0xbbd88aca	-0.006608342
54	0x3c5682a4	0.013092671
55	0xbbc5ef5e	-0.0060404977
56	0x3d381030	0.044937313
57	0xbbcb5b24	-0.006205933
58	0xbbc3f79e	-0.005980446
59	0x3cdf13e6	0.027231168
60	0xbce40a79	-0.027837025
61	0xbae4449c	-0.0017415467
62	0x3d88e23b	0.06683775
63	0xbd5f6f97	-0.05454978
64	0x3c8123e3	0.015764182
65	0x3dbb2b5d	0.0913913
66	0x3d6075e7	0.05479994
67	0x3d03b2dc	0.032152995
68	0xbd29ca64	-0.04145278
69	0x3d2642c6	0.040591024
70	0xbc2feb78	-0.0107372925
71	0xbc144e3b	-0.009051855
72	0x3c2ec0af	0.010666057
73	0x3ce2eb79	0.027700173
74	0xbb92c8ff	-0.004479527
75	0x3dae860f	0.085216634
76	0x3c35a123	0.011085781
77	0x3e013c4a	0.12620655
78	0x3dc328af	0.09529244
79	0xbcf2f28a	-0.029656667
80	0x3d8251a9	0.06363232
81	0xbbe06d0a	-0.006848936
82	0x3d02a449	0.031894956
83	0x3d8ab8e0	0.06773543
84	0x3d3ff2e7	0.04686251
85	0x3d980515	0.07422844
86	0x3ce1229d	0.027482325
87	0x3d6407c6	0.055671476
88	0x3d4618d6	0.04836353
89	0xbd43d45d	-0.047809947
90	0x3d73b1ba	0.059495665
91	0xbd8c94dd	-0.06864331
92	0x3cce7c07	0.025205625
93	0x3c4534d3	0.01203652
94	0xbaac9ef6	-0.0013169933
95	0x3cbb99c7	0.022900475
96	0x3d74ce8a	0.059767283
97	0xbd0d7a5c	-0.03454052
98	0xbcb6a0b0	-0.022293419
99	0x3cfc92f8	0.030831799
100	0xbdb565c7	-0.08857303
101	0x3ab9e2e3	0.0014181997
102	0xbd9dfcd6	-0.0771424
103	0xbdae0dec	-0.08498749
104	0xbd9d6b64	-0.07686499
105	0xbc95dc24	-0.018293448
106	0x3c300bbb	0.010744984
107	0x3d5fb22e	0.054613285
108	0xbbf594c7	-0.0074945423
109	0xbd9475fd	-0.07249067
110	0xbd841724	-0.06449726
111	0x3c1a3aba	0.009413416
112	0x3cb21fc5	0.021743665
113	0x3d3cd831	0.046104614
114	0x39daa654	0.00041704124
115	0xbd337fd5	-0.043823082
116	0xbd701c27	-0.0586206
117	0xbc008663	-0.00784454
118	0xbc921ed3	-0.017836964
119	0xbd60a346	-0.05484321
120	0x3c479c82	0.01218331
121	0xbd861ce5	-0.0654848
122	0xbcecaf09	-0.028892057
123	0x3d04bbcd	0.032405663
124	0xbad5051f	-0.0016252137
125	0xbd3745f1	-0.044744436
126	0xbdc377cd	-0.095443346
127	0x3c93507b	0.017982712
128	0xbcaa3058	-0.020775005
129	0x3d395880	0.045250416
130	0xbc94b137	-0.018150909
131	0xbc8d52fa	-0.01725148
132	0xbd253f4e	-0.040343575
133	0xbbd51f0e	-0.006503946
134	0xbd6963a9	-0.05697981
135	0x3d308197	0.043092337
136	0x3d020b2e	0.031748943
137	0xbbeacd39	-0.0071655777
138	0xbd0cf28e	-0.034411006
139	0xbd49704e	-0.049179368
140	0x3d908b4a	0.07057817
141	0xbdbc2f14	-0.09188667
142	0xbc95f953	-0.018307364
143	0xbc414a13	-0.011797446
144	0xbbdff90a	-0.0068351077
145	0x3c7e5221	0.015522511
146	0xbd39dfc6	-0.045379423
147	0xbba894c2	-0.0051446864
148	0x3d38bf6c	0.04510443
149	0xbcedd661	-0.029032888
150	0x3d2bcd8f	0.041944083
151	0x3d1680db	0.03674398
152	0x3d4be49b	0.049778562
153	0x3c8699da	0.016430784
154	0xbd5eb4db	-0.054371696
155	0x3bd5a055	0.006519357
156	0x3cdb8e88	0.026801363
157	0xbcdb3b82	-0.026761774
158	0x3cc95ab9	0.024579393
159	0x3c34d6ce	0.011037542
160	0xbc9f9470	-0.01947996
161	0x3c2a36ff	0.010389089
162	0x3c9536f9	0.01821469
163	0x3c0eeb17	0.008723042
164	0xbb540c09	-0.0032355806
165	0xbc586cb3	-0.01320951
166	0xbd7f5785	-0.062339325
167	0xbc62d15a	-0.013843859
168	0x3d93a5e8	0.072093785
169	0x3da9a683	0.08283713
170	0x3d2d7cab	0.04235522
171	0x3c936fa7	0.017997576
172	0x3c821eae	0.01588377
173	0xbce30e0a	-0.027716655
174	0xbd5210f8	-0.051285714
175	0xbd0666f3	-0.032813024
176	0x3dd842d9	0.10559625
177	0x3d9d0d20	0.07668519
178	0xbcde905a	-0.027168442
179	0x3ca8e6f4	0.02061794
180	0x3d5853ae	0.05281418
181	0x3d786538	0.060643405
182	0x3d81143d	0.06302688
183	0x3dcfbdef	0.10143649
184	0xbc1f2729	-0.009713926
185	0x3c0a6c81	0.008448721
186	0x3dda34dc	0.106546134
187	0x3e0db8b0	0.13839984
188	0x3d6927dd	0.056922782
189	0x3e0ba9df	0.1363902
190	0x3d8bb67b	0.06821915
191	0x3dac1826	0.084030434
192	0x3c839ffe	0.016067501
193	0x3dc35363	0.09537389
194	0x3d3f68bb	0.046730738
195	0x3db435b8	0.087993085
196	0x3cba60dc	0.022751264
197	0x3d3f3c6d	0.046688486
198	0x3c8a8f03	0.016913896
199	0x3cbc66eb	0.022998294
200	0xbcd3e5d2	-0.025866423
201	0x3dafca1b	0.085834704
202	0xbb30fdd7	-0.002700677
203	0x3d34140a	0.043964423
204	0x3bfc6ff0	0.0077037737
205	0xbdb55575	-0.0885419
206	0xbd74f37a	-0.05980251
207	0x3d8dac49	0.069176264
208	0x3cd1715e	0.025566753
209	0x3d7aae30	0.061201274
210	0x3d501cf6	0.05080887
211	0xbdd51c0c	-0.1040574
212	0xbd736208	-0.05941966
213	0xbd00125b	-0.031267505
214	0xbd479cc0	-0.048733473
215	0x3d4b8397	0.04968604
216	0xbd776c39	-0.060405944
217	0xbcb4decc	-0.022078894
218	0xbd8711c8	-0.065951884
219	0xbd13ff7b	-0.036132317
220	0x3d7fe6c1	0.062475923
221	0x3da1858c	0.078868
222	0x3d6973cb	0.056995194
223	0x3d992184	0.07477096
224	0x3d877fb5	0.06616155
225	0x3c88d747	0.016704215
226	0x3d080c79	0.03321502
227	0x3df8d833	0.12150612
228	0x3daffb6b	0.08592876
229	0x3da742e2	0.08167054
230	0x3d17d4a3	0.03706802
231	0x3cdc1b8e	0.026868608
232	0xbd01a80f	-0.031654414
233	0x3d6c9740	0.05776143
234	0xbbca63a8	-0.0061764307
235	0xbd834727	-0.064100556
236	0xbd995bdc	-0.07488224
237	0xbd9990fc	-0.07498357
238	0xbd98bd8c	-0.07458028
239	0x3c63f014	0.01391222
240	0x3ba1e2eb	0.004940381
241	0xbd127efd	-0.035765637
242	0xbdab642d	-0.083687164
243	0x3d209d8c	0.03921275
244	0x3c9fe968	0.019520476
245	0xbbb0d36a	-0.0053962963
246	0xbca7a584	-0.020464666
247	0x3d903497	0.07041281
248	0x3d54af8a	0.05192522
249	0xbda794c2	-0.0818267
250	0x3c938107	0.018005861
251	0x3db9e016	0.09075944
252	0x3d0e2be8	0.03470984
253	0x3dc1db0d	0.09465609
254	0x3ca3b381	0.019983055
255	0xbb8d6e2c	-0.004316112

bias f4 [16]
0	0xbd85fd62	-0.065424696
1	0xbd13c2ee	-0.03607457
2	0x396a27f8	0.00022330869
3	0xbd06ea44	-0.032938257
4	0xbd62101b	-0.05519114
5	0xbd4149e2	-0.0471896
6	0x3d83d919	0.064378925
7	0xbcfd884c	-0.03094878
8	0xba841649	-0.0010077442
9	0x3d0b844e	0.034061722
10	0xbd474c49	-0.048656736
11	0x3c567f2f	0.013091846
12	0x3d505fcf	0.05087262
13	0xbd4f1164	-0.050553694
14	0x3ca4c37c	0.020112745
15	0x3ba15d91	0.004924484

weight f4 [16]
0	0x3f93b40a	1.1539319
1	0x3f923e4d	1.1425263
2	0x3f955b24	1.1668439
3	0x3f8e237f	1.1104583
4	0x3f8de9e8	1.1087008
5	0x3f9227b3	1.1418365
6	0x3f94906a	1.1606572
7	0x3f93ea25	1.155583
8	0x3f94fd61	1.1639825
9	0x3f90dae7	1.1316804
10	0x3f9b50a2	1.2133982
11	0x3f961acb	1.1726927
12	0x3f96bfaa	1.1777241
13	0x3f96749c	1.1754336
14	0x3f95820b	1.1680311
15	0x3f966b0a	1.1751416

bias f4 [16]
0	0x3d835201	0.064121254
1	0x3d094c25	0.033519883
2	0x3dd57717	0.10423105
3	0x3d3ac0cb	0.045594018
4	0x3d89f9b9	0.06737084
5	0x3d4c9cf4	0.04995437
6	0x3c38b6a5	0.011274015
7	0x3c9712ea	0.018441636
8	0x3d1ade1f	0.037809487
9	0x3d293fde	0.041320674
10	0x3d51b022	0.051193364
11	0x3d9c8262	0.07642056
12	0x3d22f60b	0.039785426
13	0x3d3e6a28	0.046487957
14	0x3d21b7a1	0.039481763
15	0x3d7f1601	0.062276844

running_mean f4 [16]
0	0xbe762dc1	-0.24040891
1	0x3f852600	1.0402222
2	0x3e98c912	0.29840904
3	0xbe85a92b	-0.26105627
4	0xbdc33e8e	-0.09533416
5	0xbefcbab7	-0.49361202
6	0xbf1738ff	-0.59071344
7	0x3e79fda4	0.24413162
8	0x3e3ee79e	0.18643042
9	0x3ece560c	0.40300024
10	0xbd9c70fc	-0.076387376
11	0xbd989311	-0.07449926
12	0x3cd0c945	0.025486598
13	0x3cd47382	0.025933985
14	0xbd0e93cf	-0.03480893
15	0x3d946f0a	0.072477415

running_var f4 [16]
0	0x3e494a5e	0.19657275
1	0x3de18200	0.11011124
2	0x3e6d1dcc	0.23155898
3	0x3e104415	0.14088471
4	0x3e027bcb	0.12742536
5	0x3dcff091	0.10153306
6	0x3ecd79cd	0.4013199
7	0x3e3e389c	0.18576282
8	0x3de904de	0.113778815
9	0x3e6e3721	0.23263218
10	0x3e8afe7e	0.27147287
11	0x3e1202ef	0.14258932
12	0x3e20371d	0.15646024
13	0x3e620975	0.2207392
14	0x3e025124	0.12726265
15	0x3e0c1eaf	0.1368358

weight f4 [120, 16, 5, 5]
0	0x3bb779fc	0.0055992585
1	0xbcf22e4f	-0.029563097
2	0x3cb046ae	0.021518078
3	0xbced3afc	-0.02895879
4	0xbd41469b	-0.047186475
5	0x3d0f287e	0.034950726
6	0x3d1b5f28	0.037932545
7	0xbcd564b0	-0.026048988
8	0xbd08c7f3	-0.03339381
9	0x3d2518da	0.040306903
10	0x3d2ffaac	0.04296367
11	0x3dd985d3	0.10621228
12	0x3d4c0ffb	0.049819928
13	0x3d9f3b26	0.077749535
14	0x3d930be8	0.07180005
15	0x3d81f44d	0.06345425
16	0x3d277080	0.040878773
17	0x3d49fba8	0.049312264
18	0x3cdc7ada	0.026914049
19	0x3c7d53fc	0.015461918
20	0xbcc78fb1	-0.02436051
21	0x3c95d882	0.018291716
22	0xbd7e2af2	-0.062052675
23	0x3d0b1c1a	0.033962347
24	0x3d58b16e	0.052903585
25	0x3cbb827c	0.022889368
26	0x3c1d8fc2	0.009616794
27	0xbb514e87	-0.0031937675
28	0x3d3df364	0.046374694
29	0xbd37b1fb	-0.04484747
30	0xbd8033d2	-0.06259884
31	0xbde58323	-0.11206653
32	0xbd990f6e	-0.07473646
33	0xbd7793ae	-0.060443573
34	0xbd3f773c	-0.04674457
35	0xbdd353e2	-0.10318734
36	0xbd503641	-0.05083299
37	0xbd310406	-0.043216728
38	0xbd1e3a87	-0.038630035
39	0xbd7d8fb2	-0.061904617
40	0xbd9599ef	-0.07304751
41	0xbcd83bca	-0.026395697
42	0xbd47172a	-0.048606075
43	0xbd19fd92	-0.03759534
44	0xbd1c3709	-0.038138423
45	0xbdae8238	-0.08520931
46	0x3d6df938	0.058099
47	0x3d9985ad	0.074962
48	0xbbebd81d	-0.0071973936
49	0x3d88b2f6	0.06674759
50	0x3c94c2d4	0.018159308
51	0x37ce4968	2.4591296e-05
52	0xbc63087f	-0.013857006
53	0xbc18d6ea	-0.009328583
54	0x3d25de2f	0.040495094
55	0xbc42c9a9	-0.0118889
56	0x3d29d2dd	0.04146086
57	0x3d23f8ac	0.040032074
58	0xbd9eb7d6	-0.07749908
59	0xbd44a269	-0.04800645
60	0x3b91db36	0.004451181
61	0x3ceca342	0.028886441
62	0xbd333feb	-0.04376213
63	0x3d3fe1a4	0.046846047
64	0x3be0d773	0.006861621
65	0x3dac7d59	0.08422346
66	0x3c762f53	0.015025931
67	0xba3acf2c	-0.0007126208
68	0x3bf4ab58	0.007466715
69	0xbd274a39	-0.04084227
70	0x3cf58123	0.029968804
71	0x3d19b599	0.0375267
72	0x3d3b8447	0.045780446
73	0x3d7c7757	0.06163725
74	0xbd1a30f5	-0.037644345
75	0x3c222661	0.009896846
76	0x3d5b309d	0.053513158
77	0x3cc4902b	0.023994526
78	0x3d6549d3	0.055978607
79	0x3cb581f3	0.022156691
80	0xbb9c70b7	-0.004774179
81	0xbd5fdfe1	-0.054656867
82	0x3cb8b886	0.022548925
83	0x3c0208a3	0.0079366295
84	0x3d79a8ce	0.060952
85	0xbcaee756	-0.021350544
86	0xbc9b00d3	-0.018921291
87	0xbbadc5c1	-0.005303115
88	0xbd6ff729	-0.05858532
89	0x3cddfe62	0.027098838
90	0x3d6cbe6d	0.05779879
91	0x3d1286f4	0.035773233
92	0xbc81363c	-0.015772931
93	0xbac3b066	-0.001492989
94	0x3af6b020	0.00188208
95	0x3b250656	0.0025180778
96	0xba92055c	-0.0011140513
97	0x3b621c0e	0.0034501585
98	0xbd3821ec	-0.044954225
99	0xbd007440	-0.031360865
100	0x3c10bc1f	0.008833914
101	0x3bef107d	0.0072956667
102	0x3c765da7	0.015036977
103	0x3d249029	0.040176544
104	0x3d720635	0.05908795
105	0x3ce94382	0.028474573
106	0xbd00426e	-0.031313352
107	0x3ccaeed0	0.024772078
108	0xbcf30835	-0.029667
109	0x3c2db877	0.010603062
110	0xbcda66d0	-0.026660353
111	0x3cf1da56	0.029523056
112	0xbca1c7af	-0.019748537
113	0x3c384173	0.011246073
114	0xbe020de2	-0.12700608
115	0x3cad2e2d	0.021140182
116	0x3b57a487	0.0032904462
117	0xbcc2a22d	-0.023758972
118	0x3d7ccd41	0.061719183
119	0xbcc308a4	-0.023807831
120	0xbd18cc47	-0.03730419
121	0x3bb5095e	0.0055247983
122	0x3d82533e	0.063635334
123	0xbd81b395	-0.06333081
124	0xbdd03c71	-0.10167778
125	0xbd042223	-0.032259118
126	0x3b9df24a	0.004820143
127	0x3d219631	0.039449874
128	0x3d40eafa	0.04709909
129	0x3c1bbeb6	0.009505918
130	0x3d3803c3	0.044925462
131	0xbcb2be0d	-0.021819139
132	0xbd600da8	-0.054700524
133	0x3c51e4cc	0.012810897
134	0x3cf572e2	0.029962007
135	0x3d67c222	0.056581624
136	0x3d2f5d8f	0.042813834
137	0x3b3f98ac	0.0029235287
138	0xbd84972c	-0.06474146
139	0xbd4ab32a	-0.04948727
140	0xbccda68f	-0.025103835
141	0x3d81f613	0.06345763
142	0xbde0c9b8	-0.10975975
143	0xbdef1cb7	-0.11675399
144	0xbdd37cb3	-0.10326519
145	0xba4b4d19	-0.0007755324
146	0xbd0e1318	-0.034686178
147	0xbd814c81	-0.0631342
148	0xbdc05282	-0.09390737
149	0xbcf57713	-0.029964006
150	0x3cb3ba79	0.021939503
151	0x3d95bf3b	0.07311865
152	0x3c90391f	0.017605362
153	0x3cca3356	0.024682682
154	0x3c72a5cf	0.01481004
155	0xbc8de757	-0.017322225
156	0xbdc91e2b	-0.09820207
157	0xbc4e0288	-0.012573846
158	0xbcc48f8c	-0.02399423
159	0xbdab27b2	-0.08357181
160	0xbd2de914	-0.04245861
161	0xbd5594ff	-0.052144047
162	0xbd053118	-0.032517523
163	0xbe1b5571	-0.15169312
164	0xbe0a1554	-0.13484699
165	0xbdf08c1f	-0.11745476
166	0x3cb0467c	0.021517985
167	0x3d294406	0.041324638
168	0xbd2fb5ed	-0.042898107
169	0xbdb572a3	-0.08859756
170	0xbbdfe5b4	-0.0068328027
171	0xbc7283ac	-0.014801901
172	0x3d934790	0.07191384
173	0xbceb0606	-0.028689396
174	0x3c86f7a6	0.01647551
175	0x3c23cb8c	0.00999726
176	0x3cdc7f8a	0.026916284
177	0x3cb2577c	0.021770231
178	0x3cd3a24a	0.025834221
179	0x3d3f3b52	0.04668743
180	0x3d0ca50d	0.034337092
181	0x3ce2a0e6	0.027664613
182	0xbda633ad	-0.08115325
183	0xbb8d3bbe	-0.0043101003
184	0xbd099423	-0.03358854
185	0x3d93be3d	0.072140194
186	0xbb48df9d	-0.0030650862
187	0xbd421e87	-0.047392394
188	0xbd31f453	-0.043445896
189	0xbdcb7983	-0.09935286
190	0x3d834e58	0.06411427
191	0xbd0fd33d	-0.035113562
192	0x3cc57449	0.0241033
193	0xbd43b6df	-0.04778182
194	0xbd602543	-0.054723036
195	0x3d9ae36a	0.07562907
196	0x3d3e4dd4	0.04646094
197	0x3c958a5a	0.018254448
198	0xbd3276c4	-0.043570295
199	0xbcba7946	-0.022762906
200	0xbd2f9565	-0.042867083
201	0x3d224079	0.039612267
202	0x3bfd388c	0.007727688
203	0x3d702204	0.05862619
204	0x3c9d8cd3	0.01923219
205	0xbc640287	-0.013916618
206	0x3b626b63	0.003454887
207	0x3d55094b	0.052010816
208	0x3cdc4b76	0.026891451
209	0x3d931041	0.071808346
210	0xbda37f91	-0.07983316
211	0xbc2d0d6d	-0.010562283
212	0xbc0e904c	-0.008701395
213	0x3cd5ef48	0.026115075
214	0x3c34d0ef	0.011036142
215	0x3d31a787	0.043372657
216	0xbd4d46f6	-0.0501165
217	0xbc731d54	-0.014838535
218	0x3c9238b1	0.017849298
219	0xbca3c580	-0.019991636
220	0xbd47f011	-0.04881293
221	0xbd488185	-0.048951644
222	0xbd386118	-0.04501447
223	0xbc9afb8a	-0.018918771
224	0xbdfecd3b	-0.12441488
225	0x3d58be1a	0.05291567
226	0x3d4810d1	0.048844162
227	0xbb7cbc39	-0.0038564338
228	0xbd2f763b	-0.042837363
229	0xbd83471a	-0.06410046
230	0x3c4334f4	0.0119144805
231	0xbc5e2885	-0.013559465
232	0xbd475411	-0.048664156
233	0xbd38f5da	-0.045156337
234	0xbaacede3	-0.0013193454
235	0xbca1f147	-0.01976837
236	0x3ce4b21f	0.027916966
237	0x3d79421c	0.060854062
238	0x3b1d1865	0.002397084
239	0x3ad72183	0.0016413186
240	0xbd1aadbb	-0.03776334
241	0x3d901df6	0.070369646
242	0x3cc1c5a7	0.023653818
243	0xbc1e95cf	-0.009679272
244	0x3c3e02c1	0.011597336
245	0xbda049ba	-0.07826562
246	0xbc037178	-0.0080226585
247	0x3b69d56a	0.0035680183
248	0xbb90da17	-0.0044205296
249	0x3d8041af	0.06262528
250	0xbc71ed2b	-0.014766018
251	0x3d2ed4ae	0.042683296
252	0x3d7ea014	0.06216438
253	0xbc7a8e06	-0.01529265
254	0xbbc148fd	-0.0058985935
255	0xbd5cd856	-0.05391725

bias f4 [120]
0	0x3c14e4c5	0.009087746
1	0x3d37a150	0.044831574
2	0x3d519e16	0.051176153
3	0x3c4b1458	0.012394987
4	0x3cf06d3a	0.029348958
5	0xba1e01ee	-0.0006027509
6	0x3c307d98	0.010772131
7	0x3bd5fbdb	0.0065302677
8	0x3ccda1e4	0.02510161
9	0x3cb3bc2a	0.02194031
10	0xbcf04d81	-0.029333832
11	0x3aef7040	0.0018267706
12	0x3d77bc63	0.060482394
13	0x3d3e42c2	0.046450384
14	0x3d1dcace	0.038523488
15	0xbb272471	-0.0025503899
16	0xbc189e82	-0.009315135
17	0xbcad86ce	-0.021182444
18	0xbb8deee4	-0.0043314565
19	0xbbfd4511	-0.0077291806
20	0xbd06a65b	-0.032873493
21	0x3d74ef30	0.05979842
22	0x3cdea949	0.02718033
23	0x3d5b7698	0.053579897
24	0xbc6c70f7	-0.01443123
25	0x3ccc16f1	0.024913283
26	0x3d497000	0.049179077
27	0x3cac291e	0.0210157
28	0x3d2030cd	0.03910904
29	0x3adcfcdc	0.0016860026
30	0xbcb56ca1	-0.022146525
31	0x3b15c6d7	0.0022854113
32	0xbd1cefcb	-0.038314622
33	0x3d2a9c4b	0.04165296
34	0x392a07f1	0.00016215422
35	0x3ccb89ff	0.024846075
36	0x3d1d7cbb	0.03844903
37	0x3b8673b5	0.004103149
38	0x3cd2b501	0.025721075
39	0xbcae68c9	-0.0212902
40	0x3bd6b66b	0.0065525076
41	0x3be45e59	0.006969255
42	0x3cb0ef73	0.021598553
43	0x3cf944e8	0.030428365
44	0x3bb2bc54	0.0054545794
45	0x3d4befa4	0.049789086
46	0x3ba119b1	0.0049163927
47	0x3d53553d	0.05159496
48	0xbc9ff02e	-0.019523706
49	0xbce0c9b9	-0.027439939
50	0x3cce791f	0.02520424
51	0x3d32b445	0.04362895
52	0x3d4f19fd	0.050561894
53	0x3d2ec91d	0.042672265
54	0x3d789104	0.060685173
55	0x3cb05702	0.021525864
56	0xbc638e64	-0.013888929
57	0xbd1262a7	-0.035738613
58	0x3c9c54e3	0.019083446
59	0x3d144bc6	0.036205076
60	0x3d233edc	0.03985487
61	0x3bf2e5f4	0.0074126665
62	0x388ebc69	6.806182e-05
63	0x3c98788b	0.018612167
64	0x3ca5b28f	0.020226745
65	0xbc6fc90f	-0.014635338
66	0x3b1cb7ce	0.0023913267
67	0x3ce96253	0.028489267
68	0x3c0c5e1b	0.008567358
69	0x3cdb56fb	0.026774874
70	0xbd26e89a	-0.04074917
71	0x3d523fc4	0.051330343
72	0xbc338b79	-0.010958546
73	0xbc28a3f2	-0.010292994
74	0x3c25270e	0.010080112
75	0x3b863b5d	0.004096432
76	0xba8eec09	-0.0010904084
77	0xbd03afaf	-0.032149967
78	0x3bd3c006	0.0064621
79	0x3d52b049	0.05143765
80	0x3cb7912e	0.022408094
81	0x3c8f5f9f	0.01750165
82	0x3d610f42	0.05494619
83	0x39d40f55	0.00040447214
84	0xbce52da8	-0.027975872
85	0xbc00d6b5	-0.00786369
86	0xbc0d444c	-0.00862224
87	0xbbdd3204	-0.006750347
88	0x3cfdd86d	0.030986989
89	0x3d8167e8	0.06318647
90	0x3c728f81	0.014804722
91	0x3d034d0c	0.0320559
92	0x3c3c9f7b	0.0115126325
93	0x3d1e0af9	0.038584683
94	0x3ca800c7	0.020508183
95	0x3cd14bce	0.025548842
96	0xbd09afd1	-0.033614937
97	0x3ca3c287	0.019990219
98	0xbd00a8b8	-0.031410903
99	0x3cf371bd	0.02971732
100	0x3c8c1ae0	0.017102659
101	0x3cebb298	0.028771684
102	0xbc8c63c4	-0.017137416
103	0x3d304ec4	0.043043867
104	0x3b99ae08	0.0046899356
105	0x3c31f987	0.010862715
106	0x3b899598	0.004198741
107	0x3c71cb99	0.014758014
108	0x3d37125d	0.044695247
109	0x3d85273c	0.06501624
110	0xbd0188db	-0.031624656
111	0xbc7becb4	-0.015376259
112	0xbc31d0c5	-0.010852997
113	0x3cd129b0	0.025532573
114	0xbcc59b94	-0.024122037
115	0x3c23a760	0.009988636
116	0x3d43bbfb	0.047786694
117	0x3cd5d2c1	0.026101472
118	0x3c955476	0.01822875
119	0x3d9155dc	0.070964545

weight f4 [84, 120]
0	0x3b9161d0	0.004436709
1	0x3e0d0cec	0.1377446
2	0xbe6f8dcb	-0.23393933
3	0xbd201894	-0.03908594
4	0x3d46c65f	0.048529025
5	0xbdcf0b98	-0.10109633
6	0xbe0caa5c	-0.13736862
7	0x3de61672	0.1123475
8	0x3d4d4ba4	0.050120965
9	0x3d4550bb	0.048172694
10	0x3d8b1e99	0.067929454
11	0xbd9716d9	-0.07377405
12	0x3bc50c22	0.0060134092
13	0x3ce689ef	0.028141944
14	0xbcdd0202	-0.026978496
15	0x3d5e3842	0.05425287
16	0x3dd69afa	0.10478778
17	0x3be6699c	0.0070316326
18	0xbe03b221	-0.1286092
19	0x3d493032	0.04911823
20	0x3bdc4f13	0.0067232936
21	0x3dab3025	0.08358792
22	0xbd8f657e	-0.0700178
23	0x3d3aae81	0.045576576
24	0xbd869e04	-0.06573108
25	0x3e0806cf	0.13283847
26	0xbd8bb276	-0.06821148
27	0x3e20a281	0.1568699
28	0x3d6c6950	0.05771762
29	0x3d99a553	0.07502236
30	0x3d963c65	0.07335738
31	0x3dc4ef02	0.096158996
32	0xbd056aca	-0.032572545
33	0x3dd2bf19	0.10290355
34	0x3c3e2924	0.011606488
35	0x3e03d0b2	0.1287258
36	0xbd1cf87d	-0.038322914
37	0xbdf7d071	-0.12100304
38	0x3d490e97	0.04908618
39	0xbd4e0308	-0.05029586
40	0x3ddd8c73	0.10817804
41	0xbcb785de	-0.0224027
42	0xbde05566	-0.109537885
43	0x3dbd4ff1	0.09243763
44	0xbd91c12e	-0.07116924
45	0xbcd3cd92	-0.02585486
46	0x3d160e00	0.036634445
47	0xbc87ffd9	-0.01660149
48	0x3da14eb3	0.07876339
49	0x3dc5a432	0.096504584
50	0xbe045153	-0.12921648
51	0x3e375672	0.1790407
52	0xbe11f663	-0.14254145
53	0xbcc99f10	-0.02461198
54	0x3e0523e9	0.1300198
55	0xbe13b1f9	-0.1442336
56	0x3dcadbbf	0.099051945
57	0x3dcefa09	0.10106284
58	0x3dfb8d86	0.12282853
59	0x3d9a0e1a	0.07522221
60	0x3d130646	0.035894655
61	0x3d8b534f	0.06802999
62	0x3dd57623	0.104229234
63	0xbcc0ec80	-0.023550272
64	0x3dd02a3b	0.10164305
65	0x3c56dfc8	0.013114877
66	0xbe2ee830	-0.1708076
67	0xbda21559	-0.07914228
68	0x3aff68ee	0.0019486228
69	0x3d839dd5	0.064265884
70	0x3e0faa6b	0.14029853
71	0xbd876bbf	-0.06612348
72	0xbc40a4ed	-0.011758071
73	0x3c75dc3b	0.01500612
74	0x3e1f2315	0.15540726
75	0x3dbaf829	0.09129364
76	0xbcee6d9e	-0.029105004
77	0xbdcf76a6	-0.10130052
78	0xbd2faad6	-0.04288753
79	0xbd886fac	-0.06661925
80	0x3df62a5a	0.12019797
81	0x3dd52ffa	0.104095414
82	0x3dbfaded	0.093593456
83	0xbcc3b780	-0.02389121
84	0xbb679b72	-0.0035340455
85	0xbd2f3c6a	-0.042782225
86	0xbe1ecb83	-0.15507321
87	0x3e06b104	0.13153464
88	0xbda6c03c	-0.081421345
89	0x3d565c61	0.052334193
90	0xbcae95d0	-0.02131167
91	0x3d8c8dd8	0.06862992
92	0xb9ebf2b9	-0.00045003535
93	0x3de49761	0.11161686
94	0xbc9eb50e	-0.019373443
95	0x3d8bd9a2	0.068286195
96	0x3d65230a	0.05594162
97	0xbdaef025	-0.08541898
98	0xbda02036	-0.07818644
99	0x3dce3180	0.10068035
100	0xbca7a6eb	-0.020465335
101	0xbd3fad4e	-0.046796136
102	0x3e260c58	0.16215646
103	0x3e1b0dae	0.15141937
104	0x3e2d8bdd	0.16947885
105	0x3d8aae74	0.067715555
106	0x3dc0f70a	0.09422119
107	0xbcd22da6	-0.025656532
108	0x3e06f383	0.1317883
109	0x3d89d17c	0.06729409
110	0xbc85e5ed	-0.016344989
111	0xbba9224c	-0.005161559
112	0x3c05e59f	0.008172422
113	0xbd7ede2a	-0.06222359
114	0xbdecd5cb	-0.11564215
115	0xbc9c5a5b	-0.019086054
116	0xbd19ea97	-0.037577238
117	0xbbf9fcd7	-0.007629018
118	0x3d5c89f1	0.05384249
119	0xbe0423bd	-0.12904258
120	0xbe114c38	-0.14189231
121	0xbb83a92e	-0.0040179705
122	0xbd1f091c	-0.038827047
123	0x3da3070f	0.07960331
124	0xbd26db10	-0.040736258
125	0x3daf79f0	0.085681796
126	0x3dc07ee3	0.09399202
127	0xbb839d86	-0.004016581
128	0x3e0e7a99	0.13913955
129	0x3df0e673	0.11762705
130	0xbdf5ba76	-0.11998455
131	0xbdb8e463	-0.09027936
132	0x3d98fee5	0.07470492
133	0x3d159e9c	0.036528215
134	0x3d057365	0.032580752
135	0xbd615472	-0.055012174
136	0x3dca029b	0.09863778
137	0x3cd85267	0.02640648
138	0xbd1efe96	-0.03881701
139	0x3ceb96e1	0.028758468
140	0x3b0db218	0.0021621045
141	0x3cda7a46	0.026669633
142	0xbcf4be0b	-0.029875776
143	0x3d18aae7	0.03727236
144	0xbd0b3426	-0.03398528
145	0x3d22ff4a	0.039794244
146	0xbd322e68	-0.043501288
147	0xbd9e3b9f	-0.077262156
148	0x3d8eaab7	0.06966155
149	0xbd4dbf27	-0.050231125
150	0x3de491f7	0.11160653
151	0x3daf6fc9	0.08566243
152	0xbcde36f7	-0.027125819
153	0xbdbd6650	-0.0924803
154	0x3d142c77	0.036175217
155	0x3e132513	0.14369611
156	0x3e0fabbc	0.14030355
157	0x3d290b71	0.041270677
158	0x3df7df1c	0.121031016
159	0xbd87c675	-0.066296495
160	0x3d88157d	0.066447236
161	0x3d8c3578	0.06846136
162	0xbdaab4b1	-0.083352454
163	0x3dcf6abf	0.10127782
164	0x3dd8f26c	0.10593113
165	0x3dd98981	0.1062193
166	0xbdf5f34c	-0.12009296
167	0x3e0f8b9d	0.14018102
168	0xbd88db0f	-0.06682407
169	0xbcc381ed	-0.023865664
170	0xbbedcfd4	-0.007257441
171	0x3d89d4a2	0.067300096
172	0xbd808021	-0.06274439
173	0xbd827172	-0.06369294
174	0xbda80276	-0.082035944
175	0xbce02e8d	-0.027365947
176	0x3d0f541a	0.034992315
177	0xbddc8763	-0.107680105
178	0x3dceb196	0.100924656
179	0xbd3b0953	-0.04566319
180	0x3dfeb85c	0.124375075
181	0xbd6bd66e	-0.057577543
182	0xbd6c76a1	-0.05773032
183	0xbcc66e70	-0.024222583
184	0xbc68c119	-0.014206194
185	0x3dc8205f	0.09771799
186	0x3d401e7a	0.046904065
187	0xbdd720b3	-0.10504284
188	0xbd6054ad	-0.054768253
189	0xbca5ae6f	-0.020224778
190	0x3e06e475	0.13173087
191	0xbd77c9cd	-0.060495187
192	0xbc2e1c40	-0.0106268525
193	0x3e049407	0.12947093
194	0xbde6ced1	-0.11269916
195	0x3d772012	0.06033332
196	0x3daadf7b	0.08343407
197	0x3c5a8103	0.013336423
198	0x3d88cc80	0.0667963
199	0xbce2276f	-0.027606694
200	0xbdabc30e	-0.08386813
201	0xbc2bcd13	-0.010485905
202	0x3c96120f	0.018319158
203	0xbd40751e	-0.04698669
204	0xbda6c65d	-0.081433035
205	0xbd945ebc	-0.07244632
206	0xbd4e34d7	-0.05034336
207	0x3cfc44f3	0.030794596
208	0xbae416b5	-0.0017401787
209	0x3d8bed0a	0.06832321
210	0x3d8f1f97	0.06988447
211	0x3d86a734	0.0657486
212	0xbd9745cf	-0.07386362
213	0x3c749d3f	0.0149300685
214	0xbbebc386	-0.007194939
215	0xbc3a9e38	-0.011390261
216	0x3dc10c45	0.09426168
217	0xbc1d4909	-0.0095999325
218	0x3dee47ba	0.116347745
219	0xbd4a85ce	-0.049444012
220	0xbdb0ea33	-0.0863842
221	0x3d2ae44e	0.041721635
222	0xbd53b964	-0.051690474
223	0xbd9dc2ae	-0.07703148
224	0x3dca386b	0.09874042
225	0xbd06f560	-0.03294885
226	0xbcbad6da	-0.022807527
227	0xb9d6a35e	-0.0004093898
228	0x3d721fc2	0.059112318
229	0xbd52c24b	-0.051454823
230	0x3d9d887b	0.07692047
231	0x3cd4ff5a	0.026000667
232	0xbcd78d36	-0.026312452
233	0x3d345eba	0.04403565
234	0xbd3d667c	-0.046240315
235	0xbcee5e3b	-0.029097667
236	0x3e1e419e	0.15454718
237	0xbe59071f	-0.21194123
238	0x39eb9b05	0.0004493819
239	0x3c12639a	0.00893488
240	0x3d0f7532	0.035023876
241	0x3dae6db7	0.0851702
242	0x3d6beff5	0.057601888
243	0xbd45bb5f	-0.048274394
244	0xbd1a9732	-0.037741847
245	0xbc758bb2	-0.014986919
246	0x3cfad908	0.030621067
247	0xbd5a0134	-0.053223804
248	0x3d89b6c4	0.06724313
249	0x3e02c109	0.1276895
250	0x3db95ac6	0.09050517
251	0xbbec89f5	-0.007218594
252	0xbe14d3c6	-0.1453391
253	0x3c5560bc	0.013023552
254	0xbd9e22b3	-0.07721462
255	0xbb4a6ed5	-0.0030888815

bias f4 [84]
0	0xbd6ab123	-0.057297837
1	0xbc3754b5	-0.011189629
2	0x3d894e98	0.06704444
3	0x3d2862b5	0.04110976
4	0xbd6b490f	-0.05744272
5	0xbc4b9bd3	-0.012427288
6	0xbcef64e7	-0.029222919
7	0x3d113b97	0.03545722
8	0x3cf41000	0.029792786
9	0x3d4cf957	0.050042477
10	0xbd5bb627	-0.05364051
11	0x3d75e4d1	0.06003267
12	0x3d173a03	0.03692056
13	0xbd08dcdf	-0.033413764
14	0x3d8d4318	0.06897563
15	0xbd4af08a	-0.049545802
16	0xbd129ceb	-0.03579418
17	0xbd6dad66	-0.058026694
18	0x3ceba70a	0.028766174
19	0xbda5a85d	-0.08088753
20	0x3d6cd885	0.057823677
21	0x3dc7035c	0.097174376
22	0x3d46bd28	0.048520237
23	0x3d8a3b87	0.06749635
24	0x3dbc44dd	0.09192822
25	0x3c4b2ae9	0.012400367
26	0xbd2bd65e	-0.041952483
27	0x3d590f6d	0.052993227
28	0x3d9e2ab2	0.07722987
29	0x3b4e8aee	0.0031515914
30	0x3d106c22	0.035259373
31	0xbd5137bf	-0.051078554
32	0xbbf235ee	-0.007391683
33	0x3cd75892	0.02628735
34	0x3a30775b	0.00067316525
35	0x3d7ea423	0.06216825
36	0x3dae7085	0.08517555
37	0x3dc74477	0.097298555
38	0xbd8bfc26	-0.06835203
39	0xbd8414ee	-0.064493045
40	0x3ce34a97	0.027745528
41	0x3d44db88	0.048060924
42	0xbd92b6b5	-0.07163755
43	0x3c31d6ae	0.010854406
44	0xbd97bb73	-0.074088
45	0x3b754c36	0.0037429458
46	0x3ce27b31	0.027646633
47	0xbc28f30e	-0.010311855
48	0x3d8ee6df	0.06977629
49	0xbdb30a7c	-0.08742234
50	0xbba9201d	-0.005161299
51	0xbdb25960	-0.08708453
52	0xbd50a2aa	-0.05093638
53	0xbd11982c	-0.035545513
54	0xbdb2dfe8	-0.08734113
55	0x3d1a9524	0.037739888
56	0x3da2366f	0.07920539
57	0x3dc3b529	0.09556038
58	0x3ccaf540	0.024775147
59	0xbda42c6a	-0.08016284
60	0x3d80f45e	0.06296609
61	0xbbc8a2c4	-0.006122919
62	0xbd1ad6da	-0.037802555
63	0x3c9e1793	0.01929835
64	0xbcdebac6	-0.02718867
65	0x3db337c7	0.08750873
66	0xbb020aad	-0.001984279
67	0x3d8b3ae2	0.067983404
68	0x3be6e84a	0.007046734
69	0x3c439250	0.011936739
70	0x3da40a31	0.08009756
71	0x3c904f4b	0.017615935
72	0xbd50503e	-0.050857775
73	0xbd847de2	-0.06469323
74	0xbb8f7ee0	-0.0043791384
75	0xbd4f86a7	-0.050665524
76	0x3d335127	0.043778565
77	0xbc9b8f45	-0.018989215
78	0xbd215742	-0.039389856
79	0xbd0a4328	-0.03375545
80	0xbc1f80cf	-0.0097353
81	0xbd0d5e19	-0.034513567
82	0x3dc2540c	0.09488687
83	0xbd17c784	-0.037055507

weight f4 [10, 84]
0	0xbe0785c0	-0.13234615
1	0xbca10a90	-0.019658357
2	0xbd373fdd	-0.04473864
3	0xbca82d59	-0.020529436
4	0xbded1956	-0.11577098
5	0xbddb854f	-0.10718786
6	0x3d47b373	0.04875512
7	0xbd621d6a	-0.055203833
8	0xbd6cba47	-0.057794835
9	0x3e29401b	0.1652836
10	0xbda40f77	-0.08010762
11	0x3db64452	0.0889975
12	0x3d5a96d2	0.05336649
13	0x3cbbbc52	0.022916947
14	0xbd802c2b	-0.06258424
15	0x3dfc1a4d	0.12309704
16	0x3ba41ba5	0.0050081783
17	0xbe0cf9a7	-0.1376711
18	0x3cba6128	0.022751406
19	0x3de704c8	0.11280209
20	0xbd291e5c	-0.04128872
21	0xbd5b5477	-0.05354735
22	0xbb03dfbe	-0.0020122374
23	0xbd87e30d	-0.066351034
24	0x3dd4eeb8	0.103970945
25	0x3e0e2a27	0.13883267
26	0xbd82a472	-0.06379022
27	0x3e332c35	0.17497332
28	0x3c517e5b	0.012786473
29	0xbe61214d	-0.2198536
30	0x3dcf1a79	0.10112471
31	0x3df257fa	0.118331864
32	0x3df1b920	0.11802888
33	0xbceabd1a	-0.028654624
34	0x3cb93ea1	0.022612872
35	0xbe4c1911	-0.19931437
36	0x3d0b5821	0.034019593
37	0xbd941fe8	-0.07232648
38	0xbe42b5b9	-0.19014634
39	0xbe432345	-0.19056423
40	0x3cbbe7b8	0.02293764
41	0x3e049777	0.12948404
42	0x3ddf1947	0.10893493
43	0xbdc18735	-0.09449617
44	0xbd5c5edb	-0.0538014
45	0xbd210f5d	-0.039321292
46	0x3d1626cd	0.036658097
47	0xbc9bd413	-0.019022023
48	0xbd0d8f0d	-0.034560252
49	0xbe105ab1	-0.14097096
50	0xbdb36ca9	-0.0876096
51	0xbbbc4e61	-0.005746648
52	0x3dc9999a	0.0984375
53	0xbd3b5e43	-0.04574419
54	0xbd397daf	-0.045285877
55	0x3c86d782	0.016460184
56	0xbc8460a4	-0.016159363
57	0x3c245278	0.010029428
58	0x3e05bc8b	0.13060205
59	0x3d878825	0.066177644
60	0x3d68cfea	0.056838907
61	0x3df2d3b0	0.118567824
62	0xbd82a413	-0.06378951
63	0x3da837e3	0.082137845
64	0x3da18445	0.078865565
65	0xbe10deda	-0.14147511
66	0x3dbf2395	0.093329586
67	0x3d2b9157	0.041886654
68	0x3dd536f2	0.104108706
69	0x3d6dbcee	0.058041506
70	0x3deea428	0.11652404
71	0xbe3c5650	-0.183923
72	0x3d0adc23	0.033901345
73	0xbdd5b49c	-0.10434839
74	0xbddf3cd8	-0.10900277
75	0xbcc638b3	-0.024196958
76	0xbe170190	-0.1474669
77	0x3cf3f6b5	0.029780725
78	0xbda356ab	-0.07975515
79	0xbdc105f4	-0.094249636
80	0xbde6821b	-0.112552844
81	0xbe7a7eb0	-0.2446239
82	0xbe21d740	-0.15804768
83	0x3d737212	0.059434958
84	0xbdbbb21c	-0.09164831
85	0x3d7a446b	0.061100405
86	0xbd8b7603	-0.06809618
87	0xbe0d001c	-0.13769573
88	0xbdc8fd41	-0.09813929
89	0x3e02e353	0.1278203
90	0x3dc39ae9	0.09551031
91	0xbd841b09	-0.06450469
92	0xbdd9ceeb	-0.106351696
93	0x3d83d9cc	0.06438026
94	0x3bd31f0e	0.006442911
95	0xbc946eb5	-0.018119195
96	0xbd980bf7	-0.07424157
97	0x3cbca563	0.023028081
98	0x3dd863ac	0.10565886
99	0xbdf3d604	-0.119060546
100	0xbdc0c4e2	-0.094125524
101	0x3d2698dd	0.040673126
102	0xbde17054	-0.11007753
103	0x3cfa1da4	0.030531712
104	0x3cf3355c	0.02968853
105	0x3e1925eb	0.14955871
106	0x3e082f9f	0.13299416
107	0xbe30b93f	-0.17258166
108	0xbde0b7b1	-0.10972536
109	0xbdca1480	-0.09867191
110	0x3dff5cf2	0.124689
111	0xbe235db8	-0.1595372
112	0x3dc23868	0.09483415
113	0xbe1d5aea	-0.15366712
114	0xbe27af9b	-0.16375582
115	0xbcf85c04	-0.030317314
116	0x3e2fef97	0.1718124
117	0x3dbd06b9	0.09229798
118	0x3ddaea2a	0.106891945
119	0x3e0f6065	0.14001615
120	0x3d2b0d36	0.041760646
121	0x3e1d6c53	0.15373354
122	0xbd052b31	-0.032511894
123	0xbe2c504f	-0.1682751
124	0xbdb89c0d	-0.09014139
125	0x3dce5d34	0.10076371
126	0x3bcf1598	0.006319713
127	0x3e11cb57	0.14237724
128	0xbe6464f6	-0.22304139
129	0x3de41697	0.11137121
130	0x3e0636d7	0.13106857
131	0xbd9d806a	-0.07690509
132	0xbe01be84	-0.12670332
133	0x3d17f6e0	0.037100673
134	0x3d9b75c4	0.075908214
135	0xbda9d0c7	-0.08291774
136	0xbe16ce93	-0.1472724
137	0xbdda572d	-0.10661159
138	0x3dcadcfb	0.0990543
139	0x3e057c75	0.13035758
140	0x3bf72018	0.0075416677
141	0x3e236bd8	0.15959108
142	0xbe0a5ad7	-0.13511215
143	0xbbdeb026	-0.006795901
144	0xbe41075b	-0.18850462
145	0xbde77efb	-0.113035165
146	0xbe127528	-0.14302504
147	0xbdb71c57	-0.08940952
148	0xbd73b4c2	-0.059498556
149	0x3e07f3a6	0.13276538
150	0xbcaf5710	-0.02140382
151	0xbe0ee134	-0.13953096
152	0x3d1a04d4	0.03760226
153	0xbdfbbe6a	-0.12292178
154	0xbd9cf643	-0.07664158
155	0xbdfca896	-0.12336843
156	0xbe788d78	-0.24272716
157	0x3d119f32	0.03555221
158	0x3db4cdb1	0.08828295
159	0xbdc7226f	-0.097233646
160	0xbd3d378e	-0.04619556
161	0x3c4ec6f0	0.012620673
162	0x3e1a8280	0.15088844
163	0xbdf14099	-0.11779899
164	0xbd95910f	-0.07303058
165	0xbc392104	-0.011299375
166	0xbd6043bf	-0.054752108
167	0x3d92baaf	0.07164513
168	0xbc02d143	-0.007984462
169	0xbd23a705	-0.039954204
170	0x3d0d5e75	0.03451391
171	0xbdc8e0db	-0.09808513
172	0x3d9958cb	0.07487639
173	0xbcfd9921	-0.030956807
174	0xbc71ebdc	-0.014765706
175	0x3de9feb4	0.11425534
176	0x3db57611	0.0886041
177	0xbe1035f5	-0.14083083
178	0x3da51849	0.08061273
179	0x3d0b2d37	0.033978667
180	0xbce7e5c6	-0.028307807
181	0x3dab1362	0.08353306
182	0xbc826c7e	-0.015920874
183	0xbe34af11	-0.17644908
184	0x3e02d29b	0.12775652
185	0xbe0e00a8	-0.13867438
186	0x3dd99ada	0.10625239
187	0xbe070217	-0.13184391
188	0x3e19a83a	0.1500558
189	0x3bdfebcf	0.0068335305
190	0xbe33b173	-0.1754816
191	0xbe10ea3e	-0.14151856
192	0xbd546d90	-0.0518623
193	0xbca0d3c8	-0.019632235
194	0x3de9b09e	0.1141064
195	0xbd1e0da4	-0.038587227
196	0x3dc02adb	0.09383174
197	0x3d8d9191	0.0691253
198	0x3da263e3	0.07929208
199	0x3cd32d08	0.025778309
200	0xbde3219d	-0.110903956
201	0xbd4fb057	-0.05070528
202	0xbd1e9d83	-0.038724434
203	0xbe4d5141	-0.20050527
204	0xbe1ef23d	-0.15522094
205	0xbdc56dd6	-0.0964009
206	0x3da85d72	0.08220948
207	0x3da0a77d	0.07844446
208	0xbd6cf2c5	-0.05784871
209	0x3c8bd172	0.017067645
210	0x3e0ddb80	0.13853264
211	0xbd52ea23	-0.05149282
212	0xbddcdd39	-0.107843824
213	0x3e02cc8e	0.12773344
214	0x3dcc74e7	0.09983235
215	0xbdb098e7	-0.08622914
216	0x3dcdf3d1	0.1005627
217	0x3e0bf124	0.13666207
218	0x3d516635	0.051122863
219	0x3c991682	0.01868749
220	0x3d54ef34	0.051985934
221	0x3dee48ad	0.116349556
222	0xbdd0d0c7	-0.10196071
223	0x3dadf889	0.0849467
224	0x3d02d52e	0.031941585
225	0xbe73cfd6	-0.23809752
226	0x3d69416f	0.056947168
227	0xbde398da	-0.111131385
228	0x3d116f61	0.03550661
229	0xbe2517c7	-0.16122352
230	0xbdab0fcf	-0.083526246
231	0xbde0e10e	-0.10980426
232	0x3e0abace	0.13547823
233	0x3de07ab9	0.109609075
234	0x3cc5e9c3	0.024159318
235	0x3d65cb8f	0.05610233
236	0xbc93d407	-0.018045438
237	0x3d4db387	0.05022004
238	0xbdb09bf7	-0.08623498
239	0x3d1ede79	0.038786385
240	0x3cdf5d74	0.027266242
241	0x3dfee2f7	0.12445634
242	0xbbab2471	-0.00522285
243	0x3d02d9e5	0.03194608
244	0xbe3c863a	-0.18410578
245	0x3d04475f	0.032294627
246	0xbe040613	-0.12892942
247	0xbe5e694f	-0.2171986
248	0x3e0580d5	0.13037427
249	0xbe0bb01a	-0.13641396
250	0xbe11a61a	-0.14223519
251	0x3e06e50a	0.13173309
252	0x3dfa0f9d	0.12210009
253	0x3e3bf478	0.18354976
254	0xbdcaaee8	-0.09896642
255	0x3dc839dd	0.097766615

bias f4 [10]
0	0xbcc178c7	-0.023617161
1	0xbd24db62	-0.040248282
2	0x3d253830	0.040336788
3	0x3d64fbbc	0.055904135
4	0xbd23feef	-0.040038045
5	0x3d48349b	0.048878293
6	0xbda5830d	-0.080816366
7	0x3d807650	0.06272566
8	0x3c0057c8	0.007833429
9	0x3db8ad57	0.09017437
